data/ed/trp-homeostatic_shaped2022-10-18-20-59-40exchange-10-10/90000000/model.pt (torch, 283835 bytes, 13 tensors)

child_modules.0.fc.0.weight f4 [256, 69]
-0.03432741 -0.01899196 -0.05659183 0.20199728 -0.11660373 -0.3685042 -0.16688049 0.03414221
0.020959675 0.5888632 0.09910617 -0.07588644 0.07475981 -0.08645541 0.08790822 0.036752384
0.031226067 0.010729283 0.01172186 0.0881355 0.20561863 -0.16290556 -0.14284055 -0.12499334
0.29677245 0.19618988 0.10880917 0.036139257 -0.004592873 0.022941755 0.20124978 0.009433249
-0.048088785 0.07325712 0.031192835 0.099955074 -0.035152063 -0.04012904 0.07589581 -0.031354796
-0.058326174 0.23987025 -0.06517889 -0.31077737 0.11267247 -0.18767539 -0.13374291 -0.10286053
-0.26888654 0.016932022 -0.20898598 0.18117854 -0.09171348 0.19086272 0.0071470845 -0.031503797
-0.04349903 0.27589732 0.112184435 0.021778146 0.25919086 0.037946306 0.17104466 0.08875165
0.052562904 -0.4087807 0.031200856 0.75833464 0.78518885 -0.17095122 0.21144964 -0.13509181
0.24044059 0.21489938 0.025222024 -0.21572119 0.09814221 0.13380784 0.04426286 0.18350099
-0.3664351 0.021471366 0.08669616 -0.034854025 -0.13168539 -0.12799245 0.04497982 -0.09140402
-0.21192732 -0.12133348 0.22107685 -0.09558571 0.16701941 0.06370511 0.041395016 0.07912709
-0.26034212 0.016782558 0.01896338 0.004730566 -0.049506105 -0.14003424 0.0764711 -0.09763039
0.046805203 0.14520222 -0.13441175 0.3099071 0.20327996 0.07515187 -0.07257261 -0.17645794
0.055466875 -0.028928334 -0.08069058 -0.10644037 0.00031152286 0.10543735 -0.04049729 -0.17050758
-0.083476156 -0.08757825 -0.055781618 0.12287895 0.09297087 -0.06173274 -0.12641878 0.06271494
-0.04266061 -0.032883495 0.06143668 -0.28848827 -0.10652443 -0.05055597 -0.38351452 -0.18972203
0.7760216 0.66317815 0.039833825 0.012218737 0.10261163 -0.03793108 -0.26842254 0.030083947
0.10056567 -0.054416444 0.033411417 0.25941673 0.015742177 0.0444703 0.07681571 -0.033608135
0.011573305 -0.044468228 0.14198649 0.11501484 0.08731065 0.118111186 -0.062250935 0.006995044
0.04362346 -0.0030404094 -0.14907995 0.15180495 -0.1950717 -0.04336633 0.060636986 -0.15774785
0.024714928 -0.0067196223 0.07265787 0.016342564 0.016668977 -0.05202922 -0.05576594 -0.10516064
-0.17102201 -0.058686953 0.17160073 0.09634336 -0.041977942 0.13373326 -0.098969616 -0.08256161
-0.14203815 -0.19214588 -0.21341394 0.0020157096 0.02204545 0.17430851 0.08951233 0.086260214
-0.14289784 0.054257408 -0.048394494 0.07643439 0.07701514 0.1961411 0.12583709 -0.20249425
0.0076806787 -0.08926404 0.062791735 0.06257194 -0.070874505 -1.601413 -1.6001785 -0.043387115
-0.17686869 0.014149664 -0.118572675 -0.37533274 -0.25062194 -0.01826573 0.21004505 0.25902686
0.18108623 0.2235732 0.09216932 0.16420908 -0.14487417 -0.03749006 0.19032972 0.24058075
-0.07343862 -0.17138138 -0.046161532 -0.13752037 -0.036922242 -0.34698626 0.029979479 0.14997882
-0.066640176 -0.16443971 -0.036279988 -0.2412253 0.09264042 0.026487965 0.0015424704 0.026305323
-0.011012282 0.08048353 -0.1498479 0.023598738 -0.06919333 -0.19413638 -0.17266038 0.0023906021
-0.10501254 0.11038967 -0.09783527 0.20714635 0.07967711 0.021067882 0.0367229 0.055132017
00000000: e69a 0cbd 0795 9bbc d6cc 67bd 60d8 4e3e
00000010: f0cd eebd 95ac bcbe b8e2 2abe b4d8 0b3d
00000020: a0b3 ab3c bdbf 163f 2df8 ca3d 5a6a 9bbd
00000030: ac1b 993d 890f b1bd 3a09 b43d ab89 163d
00000040: cfcd ff3c e0c9 2f3c 0b0d 403c 6380 b43d
00000050: b18d 523e b7d0 26be cb44 12be 82fc ffbd
00000060: 8ff2 973e 00e6 483e 58d7 de3d c206 143d
00000070: d07f 96bb 59f0 bb3c 6c14 4e3e ea8d 1a3c
00000080: bff8 44bd d407 963d 1e88 ff3c 3fb5 cc3d
00000090: 9cfb 0fbd 595e 24bd 436f 9b3d e36d 00bd
000000a0: 6de7 6ebd 8ca0 753e 837c 85bd 361e 9fbe
000000b0: d3c0 e63d fa2d 40be e7f3 08be 8ba8 d2bd
000000c0: 7fab 89be 06b5 8a3c 6c00 56be de86 393e
000000d0: 47d4 bbbd 8471 433e 1732 ea3b 200a 01bd
000000e0: 0a2c 32bd 6a42 8d3e f4c0 e53d 1568 b23c
000000f0: aab4 843e 966d 1b3d 5526 2f3e 6dc3 b53d
00000100: 334c 573d b44b d1be f098 ff3c 3822 423f
00000110: 2302 493f d60d 2fbe 4186 583e 8255 0abe
00000120: 0f36 763e 950e 5c3e 6b9e ce3c 04e6 5cbe
00000130: c8fe c83d ec04 093e f94c 353d afe7 3b3e
00000140: 629d bbbe b8e4 af3c c28d b13d 18c3 0ebd
00000150: 89d8 06be 7410 03be c23c 383d 0832 bbbd
00000160: 7a03 59be b07d f8bd f861 623e 71c2 c3bd
00000170: 2307 2b3e d377 823d d28d 293d 620d a23d
00000180: 904b 85be 937b 893c 1759 9b3c dd02 9b3b
00000190: eac6 4abd 2365 0fbe e19c 9c3d 71f2 c7bd
000001a0: d0b6 3f3d e4af 143e 3ca3 09be 25ac 9e3e
000001b0: 9f28 503e 39e9 993d f3a0 94bd 64b1 34be
000001c0: 3c31 633d 1dfb ecbc 1a41 a5bd 69fd d9bd
000001d0: e453 a339 8aef d73d 7de0 25bd 8a99 2ebe
000001e0: 8cf5 aabd 3a5c b3bd 447b 64bd f5a7 fb3d
000001f0: 8367 be3d 78db 7cbd ed73 01be b170 803d
00000200: e4bc 2ebd d8b0 06bd 07a5 7b3d bcb4 93be
00000210: 7b29 dabd c713 4fbd 045c c4be 7e46 42be
00000220: 5aa9 463f 0bc6 293f cb28 233d 1931 483c
00000230: 0c26 d23d 9f5d 1bbd ae6e 89be 9c72 f63c
00000240: 60f5 cd3d c7e3 5ebd 69da 083d 45d2 843e
00000250: bdf5 803c 7d26 363d 8e51 9d3d afa8 09bd
00000260: f69d 3d3c 5124 36bd e864 113e e78c eb3d
00000270: edcf b23d 47e4 f13d d6fa 7ebd af36 e53b
00000280: 83ae 323d 9b41 47bb 6aa8 18be c272 1b3e
00000290: e0c0 47be e5a0 31bd 7d5e 783d a788 21be
000002a0: f676 ca3c 4730 dcbb a6cd 943d d7e0 853c
000002b0: 618d 883c 971c 55bd d46a 64bd 765e d7bd
000002c0: 6520 2fbe bb61 70bd 1ab8 2f3e ab4f c53d
000002d0: 10f1 2bbd 5ff1 083e 95b0 cabd 1016 a9bd
000002e0: 7372 11be e4c1 44be 2f89 5abe ff19 043b
000002f0: a998 b43c ee7d 323e 3e52 b73d 32a9 b03d
00000300: d053 12be 043d 5e3d 4e39 46bd a289 9c3d
00000310: 1dba 9d3d 36d9 483e 70db 003e a75a 4fbe
00000320: 34ae fb3b 11d0 b6bd f498 803d b825 803d
00000330: a726 91bd 1afb ccbf a6d2 ccbf b0b6 31bd
00000340: 111d 35be fed3 673c 3bd6 f2bd 9d2b c0be
00000350: 8551 80be 03a2 95bc 0d16 573e 2b9f 843e
00000360: ab6e 393e 5ff0 643e 45c3 bc3d 6d26 283e
00000370: e559 14be 2d8f 19bd cbe5 423e cd5a 763e
00000380: fd66 96bd 9a7e 2fbe e013 3dbd 24d2 0cbe
00000390: c73b 17bd 2fa8 b1be 8697 f53c 0c94 193e
000003a0: a57a 88bd e262 28be 539a 14bd c403 77be
000003b0: 43ba bd3d 4afd d83c b82c ca3a 437e d73c
000003c0: dc6c 34bc 8dd4 a43d ba71 19be 2452 c13c
000003d0: 3cb5 8dbd b0cb 46be e2cd 30be a6ab 1c3b
000003e0: d110 d7bd fb13 e23d dc5d c8bd 2c1e 543e
000003f0: c12d a33d 8d96 ac3c c06a 163d 1cd2 613d

child_modules.0.fc.0.bias f4 [256]
-0.022280363 -0.039396603 -0.024445046 -0.048293695 0.07195396 -0.025542237 0.02767467 0.014274424
0.018110018 0.08021775 0.03308336 0.020814594 -0.04499727 0.049209602 -0.0014936096 0.015196559
0.0013833286 0.028952332 -0.023863018 0.075075224 0.011708232 0.02136398 -0.07084106 -0.0007490406
-0.0449216 -0.013876587 0.0005530087 0.005657104 0.020417029 -0.010111383 0.050377566 -0.056575224
0.06236079 0.004444753 0.0032610535 -0.08174882 0.03681362 -0.042622015 -0.06721891 0.060007367
-0.0832043 0.0061069904 -0.03761338 0.0034109112 0.06220763 0.0037541168 -0.00396117 0.016846623
0.044545256 -0.042200424 0.011661476 -0.013145083 0.088531084 0.07800809 0.08632854 -0.090573676
-0.07903943 -0.021427106 0.031117275 -0.0056636822 0.032538947 0.040228594 -0.007641771 0.077915154
-0.09733305 -0.0124013135 -0.03905433 -0.005637378 -0.0583099 0.025295034 0.007697589 0.0020233518
0.118473805 0.021567985 -0.0121548725 0.008112906 0.095324054 0.008379874 0.041520737 -0.056158096
-0.02622273 0.054271594 -0.093340114 0.012535692 -0.0020577798 0.01898714 -0.022706658 -0.021514464
0.074965194 -0.003285551 0.025274666 0.021982461 -0.019938765 -0.04647155 -0.051693454 -0.005100788
0.008957798 -0.06486212 -0.010631622 -0.01840888 -0.023410259 0.053567912 -0.013179736 0.005021862
-0.052038264 0.08977004 0.01370569 -0.045437235 0.050791163 0.006373744 -0.0058995946 -0.0030249895
-0.038577214 0.019209877 0.096700616 0.0052195643 -0.005977965 -0.04423766 -0.05535015 -0.02166141
-0.032107186 0.024891492 0.03415783 0.008014389 0.033773005 -0.030350858 0.011270158 0.022272099
0.032171514 0.01533986 0.013762989 0.04830357 -0.013652562 0.031617165 -0.030160135 0.0492272
-0.0308186 0.03410048 -0.071304664 0.06937759 -0.04258382 0.0060268557 -0.044629227 -0.004692538
0.026701685 0.0062192897 -0.0008403943 -0.02623743 -0.06525706 0.0038385957 -0.011298723 -0.007650164
0.10958808 0.01885171 0.019200934 -0.011921405 -0.022490686 0.12121134 -0.0038940785 -0.026766587
0.052653477 -0.03201558 0.0033922947 -0.0019500094 0.04386721 -0.039595537 -0.030403914 0.058673587
0.031464472 0.054542366 -0.007410822 0.022144124 0.01712559 -0.0329639 -0.044881146 -0.02818716
-0.037346043 -0.012241619 -0.03930691 0.012303143 0.02572113 -0.036961563 0.021770474 0.01134099
-0.004269888 0.06196472 -0.01196212 -0.006305107 -0.014251499 -0.018842818 0.054844007 -0.053999905
0.09722454 0.06517272 -0.0019312827 -0.0038169546 0.03251933 -0.022676364 0.037827294 -0.015646197
0.0009912398 0.011601179 -0.014272744 -0.000981636 0.03939169 0.032577325 -0.016774125 0.024019338
0.050156258 -0.040581588 -0.03248594 -0.03146585 -0.046224955 -0.028671304 -0.013238626 -0.0045988373
-0.026913181 -0.075070456 -0.104746014 -0.061115485 -0.026557794 -0.0040286356 0.0627912 -0.034563486
0.03415292 0.02466642 -0.03431311 0.03485694 -0.015751474 -0.0006335394 0.04169919 -0.017873943
0.03545137 -0.07354043 -0.030683117 -0.04306826 0.031756897 0.037606876 0.0018794844 -0.01837976
-0.006616233 -0.0073782667 0.055260357 0.019076852 -0.020231584 -0.036137346 0.011169898 0.015105138
-0.10370895 -0.037172616 0.029715579 -0.014070249 0.03125362 -0.03409499 0.046227515 0.00982362
00000000: 4f85 b6bc 555e 21bd fa40 c8bc 9ccf 45bd
00000010: 995c 933d f43d d1bc fdb5 e23c 46df 693c
00000020: 765b 943c 3449 a43d 6b82 073d 5e83 aa3c
00000030: 0f4f 38bd 0290 493d 39c5 c3ba fdfa 783c
00000040: ce50 b53a 712d ed3c 607c c3bc 0ac1 993d
00000050: e2d3 3f3c 8303 af3c 1e15 91bd 445b 44ba
00000060: b6ff 37bd a05a 63bc c9f7 103a 3a5f b93b
00000070: 9d41 a73c 37aa 25bc b558 4e3d 6cbb 67bd
00000080: 076e 7f3d 4aa5 913b 66b7 553b ed6b a7bd
00000090: e1c9 163d 6c94 2ebd 11aa 89bd 49ca 753d
000000a0: 0467 aabd 261d c83b 7d10 1abd 9889 5f3b
000000b0: 6ecd 7e3d a107 763b b4cc 81bb ee01 8a3c
000000c0: 1675 363d 5ada 2cbd c70f 3f3c 795e 57bc
000000d0: c94f b53d b5c2 9f3d 05cd b03d b17e b9bd
000000e0: 6ddf a1bd e687 afbc a8e9 fe3c 6996 b9bb
000000f0: 8f47 053d bdc6 243d d267 fabb fb91 9f3d
00000100: 8d56 c7bd e12e 4bbc 6ff7 1fbd c1b9 b8bb
00000110: 5dd6 6ebd 8837 cf3c 0f3c fc3b 369a 043b
00000120: 65a2 f23d 58af b03c 3b25 47bc feeb 043c
00000130: 4239 c33d bd4b 093c a611 2a3d 0806 66bd
00000140: 0dd1 d6bc e44b 5e3d 1a29 bfbd 8162 4d3c
00000150: d1db 06bb eb8a 9b3c 5003 babc 1a3f b0bc
00000160: 5a87 993d 6652 57bb d10c cf3c 9014 b43c
00000170: 9f56 a3bc f458 3ebd 84bc 53bd 8324 a7bb
00000180: bac3 123c 6ed6 84bd 4130 2ebc 38ce 96bc
00000190: dfc6 bfbc 076a 5b3d d2ef 57bc 6f8e a43b
000001a0: 1326 55bd 5bd9 b73d d58d 603c 651c 3abd
000001b0: 650a 503d d7da d03b 6351 c1bb e73e 46bb
000001c0: 2403 1ebd 085e 9d3c f90a c63d e108 ab3b
000001d0: cee2 c3bb 8c32 35bd d7b6 62bd 4573 b1bc
000001e0: d382 03bd 3ee9 cb3c 15e9 0b3d c94e 033c
000001f0: 9055 0a3d 5da2 f8bc 78a6 383c fa73 b63c
00000200: 47c6 033d 0954 7b3c 297e 613c f7d9 453d
00000210: ffae 5fbc 0081 013d 6312 f7bc 76a2 493d
00000220: 4a77 fcbc f2ac 0b3d 2e08 92bd d715 8e3d
00000230: 5f6c 2ebd ee7c c53b 23cd 36bd ddc3 99bb
00000240: 7ebd da3c 2fcb cb3b e84d 5cba e1ef d6bc
00000250: 7ea5 85bd f390 7b3b 471e 39bc 3aae fabb
00000260: b76f e03d e76e 9a3c 474b 9d3c ff51 43bc
00000270: 633e b8bc a73d f83d cc33 7fbb 9a45 dbbc
00000280: 2cab 573d c522 03bd 4351 5e3b 7597 ffba
00000290: 1bae 333d ee2e 22bd a111 f9bc b753 703d
000002a0: e4e0 003d d167 5f3d 7bd6 f2bb 9867 b53c
000002b0: f74a 8c3c 2805 07bd 4bd5 37bd c2e8 e6bc
000002c0: 2af8 18bd 1291 48bc 4800 21bd 1f93 493c
000002d0: 1fb5 d23c 0265 17bd fe57 b23c 8fcf 393c
000002e0: 6bea 8bbb b8ce 7d3d c5fc 43bc 129b cebb
000002f0: 1f7f 69bc 415c 9abc 1ca4 603d 012f 5dbd
00000300: a91d c73d 4679 853d 1823 fdba df25 7abb
00000310: fd32 053d c8c3 b9bc cbf0 1a3d 742c 80bc
00000320: 7dec 813a df12 3e3c 3ad8 69bc 3daa 80ba
00000330: 2e59 213d cd6f 053d e469 89bc 34c4 c43c
00000340: a670 4d3d e138 26bd fa0f 05bd 56e2 00bd
00000350: 6156 3dbd 15e0 eabc d2e6 58bc d8b1 96bb
00000360: 0879 dcbc 8abe 99bd 1485 d6bd 3b54 7abd
00000370: bb8f d9bc a502 84bb ac98 803d 7192 0dbd
00000380: efe3 0b3d 3b11 ca3c e78b 0cbd 27c6 0e3d
00000390: 3c09 81bc 1c14 26ba c5cc 2a3d 606c 92bc
000003a0: 7535 113d 5d9c 96bd 295b fbbc 5868 30bd
000003b0: 8513 023d ab09 1a3d 0859 f63a 2791 96bc
000003c0: fccc d8bb 63c5 f1bb af58 623d 0f47 9c3c
000003d0: b5bc a5bc c104 14bd f301 373c 8a7b 773c
000003e0: 5c65 d4bd 5042 18bd 166e f33c e786 66bc
000003f0: cc03 003d 30a7 0bbd 1059 3d3d 40f3 203c

child_modules.0.fc.2.weight f4 [64, 256]
0.005248686 -0.08334937 0.18172139 -0.15909559 -0.05750802 -0.23201476 0.032909706 -0.16711529
-0.15164314 -0.2026254 0.14176242 0.048247684 0.007470476 -0.26578948 0.13131915 0.027960923
0.1954126 0.021827642 -0.04395589 0.14880997 -0.120014936 0.08942954 -0.03336506 0.047833104
0.37985137 0.057207428 0.2385985 -0.0043033683 -0.21295138 0.055390306 0.016707892 0.15861483
-0.15045232 0.4479152 0.052175626 -0.13606074 -0.190605 0.04817781 0.13768615 -0.08699675
-0.13882601 0.021584077 -0.049865354 0.013941534 0.11023702 -0.30569702 -0.16832754 0.025835684
-0.047454126 0.010064649 -0.30559286 0.22924553 -0.18111774 -0.047105066 0.25795043 -0.25836343
0.21015121 0.24134077 0.12139955 -0.114142485 -0.28600952 -0.11481472 -0.0727649 0.019111339
-0.113837376 0.031000987 0.06127581 0.054338843 0.06888966 -0.48550886 0.13168404 0.20978527
0.051272836 0.24821287 -0.1414368 -0.22132443 -0.09123169 -0.14863203 0.13765998 -0.17133874
-0.19650555 -0.1961218 0.002306925 -0.13626616 0.28020322 0.03839661 0.2614386 0.19194722
0.08765226 0.09221275 -0.09699381 -0.14992917 -0.040626768 0.5980013 0.05892095 -0.11714006
0.09614222 0.076904036 -0.37319627 0.054815207 -0.08887659 0.04182699 0.10671496 0.08578658
-0.2279496 -0.12816755 -0.013739309 0.106757104 -0.025397643 -0.24632409 0.28903532 0.06695572
-0.123867944 -0.13638937 -0.101509705 0.16865431 -0.194623 -0.11484621 -0.214098 -0.08597226
0.16070838 -0.13870981 -0.030471455 0.014453472 0.17549281 -0.2766875 -0.08596421 0.120692626
0.028462011 0.056751378 -0.062451605 -0.05593864 -0.25246155 0.010393959 0.15455288 0.084105
0.16551943 0.060734086 -0.0006543729 0.11874582 0.19967096 -0.116001695 0.17271881 -0.17287098
-0.01448061 0.1241613 0.084088944 0.06753305 0.301009 -0.026981687 0.1794997 0.1682202
-0.44707286 0.02831103 0.29094765 0.21333963 0.0050145653 -0.08023742 0.04725027 -0.0061392505
0.008170655 -0.20372628 -0.3066596 -0.0054590753 0.14502427 0.07168794 0.059223264 -0.24473506
-0.16544913 -0.3752937 -0.1793712 0.15509403 -0.19259545 -0.10356974 0.1313781 0.32114896
-0.04068266 -0.15407698 0.2493877 -0.23520595 0.17450576 0.253835 -0.09928543 -0.12662213
-0.095388174 0.14467135 0.069664985 -0.02320543 0.17958464 0.24535425 0.18160008 -0.16083407
-0.2841754 -0.09335475 0.068065494 -0.029247867 0.052042123 -0.022260826 -0.29324338 -0.19233984
-0.3660564 0.045646153 -0.10601089 0.035824563 0.0066160113 0.010954191 0.15378611 -0.044835567
-0.06539984 -0.010794333 0.19782373 -0.06339898 0.13936275 0.5213877 0.07931731 -0.021652648
-9.086692e-06 -0.09331116 -0.15514906 0.30249316 0.2508435 -0.029118622 0.10979744 -0.10100708
0.16908732 -0.37311667 -0.037769545 -0.009363719 0.19938895 -0.15147543 -0.079144664 0.2002143
0.008748318 -0.13952959 0.043892138 0.04590724 0.20666392 0.0438096 -0.008846288 -0.2203112
-0.19002448 0.10249412 -0.3760109 0.045600947 -0.06450071 -0.058787584 0.26351184 0.17412372
0.024960304 -0.025959214 0.003553338 -0.045559026 0.11766225 0.07199674 -0.045109235 0.1533551
00000000: 2bfd ab3b 13b3 aabd 2c15 3a3e f4e9 22be
00000010: 888d 6bbd 4795 6dbe 54cc 063d 4520 2bbe
00000020: 5748 1bbe 087d 4fbe 2b2a 113e 5d9f 453d
00000030: e5ca f43b 8f15 88be 8778 063e 4e0e e53c
00000040: 3e1a 483e e2cf b23c 170b 34bd a461 183e
00000050: 64ca f5bd d626 b73d cda9 08bd a5ec 433d
00000060: e17b c23e 5652 6a3d 2a53 743e 4503 8dbb
00000070: ed0f 5abe f2e0 623d fdde 883c ed6b 223e
00000080: 2c10 1abe 2455 e53e 1cb6 553d 8253 0bbe
00000090: f52d 43be 1856 453d 99fd 0c3e 5a2b b2bd
000000a0: 6828 0ebe 17d1 b03c 9d3f 4cbd 086b 643c
000000b0: f2c3 e13d 5284 9cbe 0e5e 2cbe 5ba5 d33c
000000c0: 425f 42bd 33e6 243c ab76 9cbe 57bf 6a3e
000000d0: ee76 39be 3ef1 40bd 1412 843e 3648 84be
000000e0: e131 573e 0922 773e 54a0 f83d 89c3 e9bd
000000f0: d76f 92be fb23 ebbd c405 95bd 628f 9c3c
00000100: 9223 e9bd c8f5 fd3c 58fc 7a3d 6892 5e3d
00000110: 0616 8d3d 9e94 f8be 2ed8 063e f3d1 563e
00000120: 7703 523d 842b 7e3e cfd4 10be dfa2 62be
00000130: aed7 babd ff32 18be bdf6 0c3e 6c73 2fbe
00000140: c038 49be 27d4 48be c72f 173b 5b89 0bbe
00000150: cc76 8f3e c445 1d3d 48db 853e d08d 443e
00000160: 0783 b33d 0ada bc3d b1a4 c6bd 0887 19be
00000170: 4168 26bd 9d16 193f 1857 713d 21e7 efbd
00000180: 36e6 c43d dd7f 9d3d 9513 bfbe e985 603d
00000190: ee04 b6bd c752 2b3d 5f8d da3d e0b0 af3d
000001a0: 9f6b 69be 5b3e 03be d71a 61bc 78a3 da3d
000001b0: b80e d0bc 623c 7cbe 70fc 933e 1520 893d
000001c0: 7aae fdbd a8a9 0bbe 52e4 cfbd b7b3 2c3e
000001d0: 404b 47be 7d34 ebbd 823c 5bbe 3912 b0bd
000001e0: bd90 243e f209 0ebe 469f f9bc 41ce 6c3c
000001f0: 63b4 333e fca9 8dbe 010e b0bd b22d f73d
00000200: 2a29 e93c 2274 683d 41cd 7fbd ea1f 65bd
00000210: a442 81be 6c4b 2a3c 1c43 1e3e 3e3f ac3d
00000220: ed7d 293e 4ec4 783d 398a 2bba 0231 f33d
00000230: 8b76 4c3e 4c92 edbd 33dd 303e 1705 31be
00000240: 1540 6dbc 4848 fe3d d336 ac3d c54e 8a3d
00000250: da1d 9a3e b308 ddbc c5ce 373e eb41 2c3e
00000260: bce6 e4be 88ec e73c 17f7 943e b475 5a3e
00000270: 3951 a43b 8453 a4bd 8089 413d c42b c9bb
00000280: 36de 053c 9f9d 50be 7d02 9dbe 0be2 b2bb
00000290: 3e81 143e 20d1 923d 1894 723d d49b 7abe
000002a0: 7f6b 29be 7f26 c0be 15ad 37be f8d0 1e3e
000002b0: be37 45be 5f1c d4bd fb87 063e a36d a43e
000002c0: dca2 26bd 5bc6 1dbe 7d5f 7f3e d4d9 70be
000002d0: a3b1 323e a9f6 813e 2956 cbbd 3ba9 01be
000002e0: e05a c3bd ba24 143e 84ac 8e3d 5019 bebc
000002f0: 09e5 373e 253e 7b3e 5ff5 393e b0b1 24be
00000300: 707f 91be c630 bfbd ec65 8b3d 3999 efbc
00000310: 1f2a 553d 565c b6bc ff23 96be bcf4 44be
00000320: bf6b bbbe 76f7 3a3d 3d1c d9bd c7bc 123d
00000330: 20cb d83b 3579 333c 1b7a 1d3e 80a5 37bd
00000340: 5af0 85bd b7da 30bc 4e92 4a3e 53d7 81bd
00000350: 1cb5 0e3e aa79 053f 1d71 a23d e560 b1bc
00000360: 0c73 18b7 ec19 bfbd 65df 1ebe 62e0 9a3e
00000370: 8f6e 803e 2d8a eebc 7bdd e03d cddc cebd
00000380: 3a25 2d3e 2609 bfbe 3db4 1abd 496a 19bc
00000390: 9e2c 4c3e 601c 1bbe 9916 a2bd fa04 4d3e
000003a0: 1b55 0f3c d8e0 0ebe 3ec8 333d 3b09 3c3d
000003b0: b59f 533e b271 333d 05f0 10bc 4299 61be
000003c0: c795 42be 70e8 d13d 8084 c0be 0fc8 3a3d
000003d0: f318 84bd 40cb 70bd 06eb 863e 7d4d 323e
000003e0: 8d79 cc3c 6ba8 d4bc 1fdf 683b 1a9c 3abd
000003f0: e8f8 f03d 0773 933d 76c4 38bd 1f09 1d3e

child_modules.0.fc.2.bias f4 [64]
-0.10690087 -0.039697547 -0.03284913 0.10296232 -0.05301382 0.0151577825 -0.056552116 0.046783224
0.050694704 -0.09879585 0.050792523 0.047318313 0.061837085 -0.09355275 0.044783346 0.058847573
0.07190511 -0.0868216 0.020823862 -0.017013093 0.025823176 0.065416574 -0.019746762 0.05952735
-0.06077667 0.11269103 0.08490338 0.0037070527 0.005659705 0.043263894 -0.06995816 0.0388543
0.086046234 0.033302207 -0.08173297 -0.04587886 -0.016860597 0.030446922 0.07564673 -0.009639927
-0.03298207 0.04415952 0.0772306 -0.09015245 0.08306825 0.07372122 -0.067335404 -0.004062191
0.014484706 0.04483345 0.074119315 -0.004993468 -0.07996914 0.08534684 -0.03890166 0.0032992167
0.048449066 0.12316149 0.023168618 -0.1134515 0.016193118 0.08906275 -0.009270358 -0.008087384
00000000: d8ee dabd e599 22bd cf8c 06bd e9dd d23d
00000010: 0525 59bd 5958 783c 31a3 67bd c49f 3f3d
00000020: 40a5 4f3d 7b55 cabd d20b 503d d9d0 413d
00000030: e248 7d3d 9698 bfbd be6e 373d 270a 713d
00000040: fc42 933d 86cf b1bd ce96 aa3c 0b5f 8bbc
00000050: 208b d33c 20f9 853d f6c3 a1bc f3d2 733d
00000060: f5f0 78bd 8eca e63d d3e1 ad3d 06f2 723b
00000070: 0c75 b93b 7b35 313d 3946 8fbd b025 1f3d
00000080: 0239 b03d e567 083d 9e63 a7bd 79eb 3bbd
00000090: 3c1f 8abc d36b f93c acec 9a3d c9f0 1dbc
000000a0: 3518 07bd 9de0 343d 142b 9e3d d9a1 b8bd
000000b0: b01f aa3d 27fb 963d 25e7 89bd 211c 85bb
000000c0: 4351 6d3c 48a3 373d decb 973d 3fa0 a3bb
000000d0: dcc6 a3bd 53ca ae3d 5957 1fbd ac37 583b
000000e0: 8772 463d 173c fc3d 1dcc bd3c 4359 e8bd
000000f0: 6ea7 843c 8866 b63d b3e2 17bc f280 04bc

child_modules.0.fcc_c0.weight f4 [8, 64]
-0.4500197 0.25109202 0.117846675 0.06933836 0.16379608 -0.07074843 0.112464905 0.45139426
0.7554627 -0.5591478 -0.06490327 -0.8526568 0.5787438 -0.35027283 1.0542126 -0.1272561
-0.39463222 -0.029205281 -0.14806758 0.40077624 0.0205361 0.052808702 0.2960996 0.4656836
0.10525029 -0.002943728 0.8366546 -0.26298356 -0.17756969 0.4325359 -0.5553865 -0.21529455
-0.11491863 0.48406184 0.06479273 0.0522956 -0.7989723 0.07544764 0.22321352 0.32861465
-0.15987127 -0.07978564 0.55022156 -0.58761996 0.46634406 0.6869604 -0.41516304 -0.3252567
0.08918546 -0.22376965 -0.020782547 0.45895818 -0.68544215 -0.13752401 -0.2833181 -0.28695887
0.22654969 0.38975686 -0.29119745 -0.3633423 -0.13862188 0.21708485 0.062226735 0.066182844
-0.61068326 -0.1140932 -0.14265808 0.5833158 -0.20838532 0.6394369 -0.2114386 0.6757079
-0.15394595 -0.3317778 -0.38285413 -0.39600092 0.20805554 -0.08499093 0.43544927 0.38658586
0.20411496 -0.33843756 0.42964783 0.5076631 0.34525803 0.76805454 -0.077241205 0.58004636
0.041290876 0.28282365 0.31781682 -0.57009625 -0.10362686 -0.21202843 -0.07376776 4.2094773e-05
0.5422875 0.19209765 0.021227961 0.33941114 0.23758277 -0.36913458 0.29360518 -0.116464816
-0.45074472 0.28120154 0.17704906 -0.26288995 0.17338477 0.06554824 -0.18952206 -0.54605025
0.12863548 0.10900721 0.25155157 0.3404614 -0.40917256 0.1720291 0.42615712 0.49438483
0.6095997 0.3739141 -0.07487481 -0.61293167 0.6219168 -0.3242828 -0.09911735 0.29230344
-0.30416426 -0.048612904 0.5575015 0.15411706 -0.124087065 0.16616891 0.22796921 0.28439042
0.5206185 -1.0996349 0.5554531 -1.2464371 0.26707232 -0.760277 0.5606335 0.06787504
0.06559143 -0.41448438 0.23918593 -0.26115558 0.26935652 0.6484879 -0.5565258 0.00089928735
-0.48017618 0.4656597 0.11793331 0.36774114 -0.108191215 -0.062680244 -0.29630238 0.1594965
0.4272433 -0.074559875 -0.1176762 -0.08804391 -0.33144438 0.1169277 0.4399064 0.57018375
-0.7054725 0.6109296 0.8997342 0.055612795 0.7020971 0.76278514 -0.5392893 0.0756001
-0.047682457 0.57152086 0.45099202 0.14309639 -0.5957415 -0.10983547 0.26938075 -0.02923307
0.41203937 0.42192295 -0.008438219 -0.40733677 -0.01935115 0.24902678 -0.33699268 0.4670757
-0.47156417 -0.3176275 -0.24475427 0.20944831 -0.42792174 0.22702266 -0.35403636 -0.05502711
0.019518849 -0.80252165 0.3106969 -0.3364245 0.09333656 -0.21234669 0.3294907 0.430429
0.5564485 -0.12005936 0.046551146 0.21439552 -0.06218212 0.4135952 -0.22632037 0.19294293
0.2447692 0.23681672 -0.086091414 0.1452296 -0.38853243 0.570148 0.07984943 0.262999
0.55584574 0.34660152 0.42022863 0.19868113 -0.7332131 0.30487683 0.2609596 0.115130976
-0.1663404 0.34950966 0.0029431325 -0.33777156 0.17561911 0.5378965 -0.2647054 -0.65524906
0.2736617 -0.09633985 0.17852367 0.4874103 -0.13514763 0.47496814 0.53891784 0.20206542
0.2876052 0.39001036 0.35759103 -0.082019396 0.16357808 0.41677812 0.2618772 0.33748284
00000000: fb68 e6be 228f 803e 9959 f13d 4501 8e3d
00000010: 29ba 273e 8ee4 90bd 0054 e63d 261d e73e
00000020: 0166 413f 4f24 0fbf 01ec 84bd b747 5abf
00000030: 8e28 143f f656 b3be 70f0 863f 6c4f 02be
00000040: 3c0d cabe ea3f efbc 079f 17be 8b32 cd3e
00000050: 533b a83c f04d 583d 5e9a 973e 156e ee3e
00000060: 778d d73d 8feb 40bb ff2e 563f c8a5 86be
00000070: d4d4 35be 5875 dd3e cf2d 0ebf 2d76 5cbe
00000080: 755a ebbd f4d6 f73e 0db2 843d e933 563d
00000090: 7389 4cbf 4b84 9a3d 1692 643e 2e40 a83e
000000a0: 4bb5 23be a766 a3bd 52db 0c3f 436e 16bf
000000b0: a6c4 ee3e a3dc 2f3f 4090 d4be 0c88 a6be
000000c0: dea6 b63d df23 65be 2940 aabc 91fc ea3e
000000d0: 2379 2fbf 18d3 0cbe 120f 91be 46ec 92be
000000e0: a4fc 673e 368e c73e d517 95be 0008 babe
000000f0: e5f2 0dbe 7e4b 5e3e 76e1 7e3d df8a 873d
00000100: bd55 1cbf b2a9 e9bd f614 12be 2f54 153f
00000110: f662 55be 23b2 233f 5c83 58be 31fb 2c3f
00000120: 02a4 1dbe c8de a9be 7505 c4be a2c0 cabe
00000130: 830c 553e ba0f aebd 35f3 de3e 95ee c53e
00000140: 8303 513e b047 adbe cdfa db3e 35f6 013f
00000150: a9c5 b03e 399f 443f a330 9ebd eb7d 143f
00000160: 9f20 293d 43ce 903e e3b8 a23e d4f1 11bf
00000170: 523a d4bd fb1d 59be 8d13 97bd eb8e 3038
00000180: 5bd3 0a3f 3fb5 443e 43e6 ad3c 4cc7 ad3e
00000190: e648 733e 35ff bcbe 6b53 963e 1b85 eebd
000001a0: 03c8 e6be a6f9 8f3e 594c 353e 8399 86be
000001b0: c78b 313e 283e 863d 1212 42be f3c9 0bbf
000001c0: 05b9 033e 2c3f df3d 5ecb 803e f550 ae3e
000001d0: 117f d1be 6528 303e 4431 da3e 0220 fd3e
000001e0: ba0e 1c3f ab71 bf3e f757 99bd 17e9 1cbf
000001f0: f035 1f3f 6508 a6be 0afe cabd cca8 953e
00000200: 6bbb 9bbe 531e 47bd 6bb8 0e3f ddd0 1d3e
00000210: 5c21 febd 2f28 2a3e c370 693e 9f9b 913e
00000220: 4147 053f d6c0 8cbf 2d32 0e3f 408b 9fbf
00000230: b4bd 883e 83a1 42bf ad85 0f3f 1202 8b3d
00000240: cd54 863d 4c37 d4be 28ed 743e 2fb6 85be
00000250: 19e9 893e 4e03 263f 7a78 0ebf 27be 6b3a
00000260: a7d9 f5be f36a ee3e 0587 f13d 9148 bc3e
00000270: 5b93 ddbd 805e 80bd f2b4 97be 0d53 233e
00000280: a2bf da3e d9b2 98bd 3800 f1bd 5e50 b4bd
00000290: 14b3 a9be ca77 ef3d 693b e13e 90f7 113f
000002a0: d999 34bf e265 1c3f fb54 663f 3eca 633d
000002b0: a3bc 333f e345 433f dd0e 0abf 3ad4 9a3d
000002c0: ae4e 43bd 314f 123f 6de8 e63e dc87 123e
000002d0: 8482 18bf 6bf1 e0bd 46ec 893e 317a efbc
000002e0: d3f6 d23e 4906 d83e 7540 0abc 728e d0be
000002f0: 4e86 9ebc e000 7f3e 4e8a acbe 8c24 ef3e
00000300: dc70 f1be 12a0 a2be dda0 7abe 9e79 563e
00000310: 8f18 dbbe a178 683e 4144 b5be 1b64 61bd
00000320: fee5 9f3c 0f72 4dbf aa13 9f3e d53f acbe
00000330: 3d27 bf3d 6971 59be 01b3 a83e 3161 dc3e
00000340: 6973 0e3f afe1 f5bd 6aac 3e3d 808a 5b3e
00000350: aeb2 7ebd c0c2 d33e 87c0 67be d592 453e
00000360: c7a4 7a3e 1580 723e b250 b0bd 11b7 143e
00000370: b9ed c6be 38f5 113f 1988 a33d cea7 863e
00000380: e84b 0e3f c175 b13e 3528 d73e 1173 4b3e
00000390: dbb3 3bbf d118 9c3e 7f9c 853e cac9 eb3d
000003a0: 2355 2abe eef2 b23e 92e1 403b 65f0 acbe
000003b0: 7fd5 333e 96b3 093f 7787 87be 67be 27bf
000003c0: 631d 8c3e d44d c5bd e9ce 363e d88d f93e
000003d0: 2464 0abe 062f f33e 85f6 093f 3dea 4e3e
000003e0: fd40 933e 70af c73e 2c16 b73e c9f9 a7bd
000003f0: 0381 273e f163 d53e c514 863e 8dca ac3e

child_modules.0.fcc_c0.bias f4 [8]
0.23387538 0.27408576 0.40361017 0.24844694 0.26984927 0.28638217 0.23298296 0.17265475
00000000: 077d 6f3e f854 8c3e fea5 ce3e e068 7e3e
00000010: af29 8a3e afa0 923e 1693 6e3e 68cc 303e

child_modules.0.fcc_c1.weight f4 [8, 64]
-0.18691576 -0.78992605 -0.37242573 0.30481005 -0.7165935 0.38636354 -0.58389276 -0.35743633
-0.32308555 0.39623022 0.26565474 1.0059388 -0.2616182 0.05734521 -0.33188003 0.61579585
0.79870456 -0.48817602 0.3931962 -0.26470217 0.49824166 -0.07654985 -0.47170588 -0.13683112
-0.0882649 0.5334864 -0.1381268 -0.027231948 -0.42797592 0.0056072436 0.124135494 0.6481205
0.63881063 -0.04694505 -0.22886759 -0.110004514 0.3221302 0.45045072 0.021614952 0.036706053
-0.27400684 0.5509862 -0.101540014 0.030125638 -0.044119142 -0.4477636 -0.054726012 -0.2603543
0.3407119 0.106625006 0.5152592 -0.25632796 0.56746453 0.42935646 0.33813727 0.32102728
0.41460449 0.3878303 0.0014967833 -0.111529954 0.59356105 0.33038568 0.089566715 0.5734339
0.022589713 -0.41098613 -0.06805737 0.07075663 -0.45884565 -0.43414918 0.05499134 -0.40161437
0.5439538 0.13306992 0.46341202 0.9202329 0.354005 -0.40640244 0.15127233 0.14598967
0.42938367 -0.25083363 0.018525677 -0.16414072 0.33351037 -0.5174805 -0.0952501 -0.179662
-0.20301512 0.37736857 0.07329978 -0.17324595 -0.28590232 0.5458056 -0.47001532 0.3109913
-0.003621794 0.38612965 -0.5404336 -0.438389 -0.40493298 0.91733044 0.09680447 0.5622093
-0.18892583 0.4704888 0.55078834 -0.11492534 0.42579404 0.30384734 -0.4489134 -0.019795313
0.28171045 -0.49321562 0.17596398 -0.24412788 0.19848992 0.09037799 -0.25467524 -0.23495905
0.04812354 0.27017364 -0.25429612 0.08220656 -0.2501193 0.8111821 0.14448634 0.38081494
-0.2936654 -0.7388174 -0.93843156 0.4260123 -0.5482033 -0.053692803 -0.6318054 -0.18350537
-0.040805664 0.6510636 -0.20446628 1.1954197 0.28467497 -0.014161314 0.12252031 0.4054875
0.42928872 -0.30362618 0.30943355 0.28331557 0.36548293 -0.1897559 0.29127312 0.6379438
0.418165 0.21263996 0.37717274 -0.6506102 -0.5478328 0.5606611 -0.25527298 0.31497428
0.18278304 0.5105195 -0.39488238 -0.13082395 -0.022907358 0.52545446 -0.019736845 -0.037149675
-0.026089177 0.1695854 -0.44237354 -0.54331714 -0.07008819 -0.4293124 -0.13813193 -0.40863746
0.50080216 -0.65247166 0.19376595 0.16774663 0.3545027 0.47939378 -0.023481715 0.5048745
0.2398694 0.26302087 0.09894477 -0.04667918 0.4035945 0.22080827 0.46561506 0.0729459
-0.1968262 -0.14061701 0.24843958 0.44027328 -0.19999276 0.0099258665 0.09029033 0.1813228
0.35932258 0.82474077 -0.23056763 0.69804144 0.5885746 -0.3435417 0.07142614 -0.10722563
-0.08299077 -0.59663665 0.5923616 -0.09979284 0.8478697 -0.11070378 -0.008806351 0.2127769
-0.095073044 0.43289727 0.59240717 -0.7625572 -0.13625942 -0.13487457 -0.80163014 -0.0074320333
0.22646372 0.33630082 -1.1077154 -0.30380258 0.16263013 0.2839842 0.27889174 0.40559024
-0.50187135 0.3486306 0.7856356 0.07293657 0.4874393 -0.34498626 -0.46329564 0.1156165
0.14486012 -0.06306858 0.14715153 -0.2375213 -0.06039113 -0.3477847 -0.5565994 0.17618595
0.4390316 0.37934905 -0.8728437 -0.30487707 0.37070376 0.13851522 -0.1298292 0.40613067
00000000: d866 3fbe 9838 4abf 96ae bebe 1010 9c3e
00000010: ac72 37bf 71d1 c53e ff79 15bf e501 b7be
00000020: 786b a5be b0de ca3e e603 883e 9ac2 803f
00000030: d2f2 85be d0e2 6a3d 2eec a9be cca4 1d3f
00000040: e777 4c3f 35f2 f9be 0351 c93e 0b87 87be
00000050: 8819 ff3e 2bc6 9cbd 6f83 f1be 751d 0cbe
00000060: 3ac4 b4bd 9192 083f 1d71 0dbe 8915 dfbc
00000070: a91f dbbe f8bc b73b c03a fe3d 3aeb 253f
00000080: 1889 233f 7449 40bd 445c 6abe 0c4a e1bd
00000090: 40ee a43e 7aa1 e63e d711 b13c 1659 163d
000000a0: a04a 8cbe 6e0d 0d3f 36f4 cfbd 0bca f63c
000000b0: 46b6 34bd 4541 e5be 6228 60bd 294d 85be
000000c0: ca71 ae3e 365e da3d 07e8 033f 6b3d 83be
000000d0: 5b45 113f 9cd4 db3e 5420 ad3e b05d a43e
000000e0: 0a47 d43e b191 c63e b72f c43a d169 e4bd
000000f0: 9ef3 173f 5028 a93e c16e b73d 90cc 123f
00000100: 100e b93c c66c d2be aa61 8bbd dae8 903d
00000110: d1ed eabe cd48 debe 993e 613d 66a0 cdbe
00000120: 8e40 0b3f 7b43 083e 5744 ed3e 6294 6b3f
00000130: 2540 b53e fb13 d0be 22e7 1a3e 517e 153e
00000140: 2dd8 db3e 446d 80be 29c3 973c 8114 28be
00000150: dfc1 aa3e 9a79 04bf 7c12 c3bd 51f9 37be
00000160: 32e3 4fbe 7436 c13e 321e 963d 6367 31be
00000170: ca61 92be eab9 0b3f d9a5 f0be 403a 9f3e
00000180: 9f5b 6dbb c9b2 c53e db59 0abf 8674 e0be
00000190: 6053 cfbe 2bd6 6a3f 6c41 c63d f3ec 0f3f
000001a0: c675 41be e8e3 f03e 7700 0d3f fa5d ebbd
000001b0: ad01 da3e e191 9b3e fad7 e5be c829 a2bc
000001c0: 5a3c 903e c286 fcbe e72f 343e a9fc 79be
000001d0: f140 4b3e 1818 b93d cb64 82be 1b99 70be
000001e0: 301d 453d 3354 8a3e 1a33 82be ea5b a83d
000001f0: a30f 80be a1a9 4f3f 3af4 133e 2dfa c23e
00000200: 505b 96be 2323 3dbf 0d3d 70bf 491e da3e
00000210: 0d57 0cbf fcec 5bbd 00be 21bf d5e8 3bbe
00000220: d723 27bd 1bac 263f 9c5f 51be 8303 993f
00000230: ebc0 913e db04 68bc eeeb fa3d 0f9c cf3e
00000240: bbcb db3e e474 9bbe 136e 9e3e bd0e 913e
00000250: 9420 bb3e 5f4f 42be c021 953e 4950 233f
00000260: b919 d63e 4abe 593e c91c c13e 648e 26bf
00000270: c53e 0cbf 7c87 0f3f 24b3 82be 4f44 a13e
00000280: 7a2b 3b3e 68b1 023f 062e cabe b7f6 05be
00000290: 36a8 bbbc 2f84 063f 2aaf a1bc 422a 18bd
000002a0: f8b8 d5bc cca7 2d3e c97e e2be d516 0bbf
000002b0: 668a 8fbd d6ce dbbe 7572 0dbe ee38 d1be
000002c0: 9234 003f 6208 27bf 956a 463e c6c5 2b3e
000002d0: 6181 b53e 1a73 f53e ba5c c0bc 753f 013f
000002e0: 53a0 753e acaa 863e 8ea3 ca3d ab32 3fbd
000002f0: f0a3 ce3e 901b 623e 1965 ee3e a964 953d
00000300: cf8c 49be e8fd 0fbe f266 7e3e 806b e13e
00000310: e7ca 4cbe 1aa0 223c 23ea b83d afac 393e
00000320: 21f9 b73e 3622 533f ec19 6cbe d8b2 323f
00000330: d3ac 163f b3e4 afbe de47 923d 1c99 dbbd
00000340: 11f7 a9bd 2ebd 18bf 03a5 173f 3060 ccbd
00000350: fd0d 593f aab8 e2bd 8348 10bc 30e2 593e
00000360: a8b5 c2bd b6a4 dd3e ffa7 173f f336 43bf
00000370: 9787 0bbe 8f1c 0abe a237 4dbf 6a88 f3bb
00000380: 1be6 673e 9f2f ac3e 9ec9 8dbf 038c 9bbe
00000390: 8388 263e 6166 913e e6ca 8e3e 86a9 cf3e
000003a0: a47a 00bf b67f b23e 6a1f 493f c55f 953d
000003b0: a591 f93e 0aa2 b0be 1635 edbe 58c8 ec3d
000003c0: 3656 143e 1a2a 81bd e4ae 163e c938 73be
000003d0: b15c 77bd d610 b2be 4c7d 0ebf 176a 343e
000003e0: c0c8 e03e 0a3a c23e af72 5fbf d918 9cbe
000003f0: e2cc bd3e efd6 0d3e f2f1 04be 5cf0 cf3e

child_modules.0.fcc_c1.bias f4 [8]
0.23141107 0.30738005 0.25836065 0.33258244 0.21203092 0.31316084 0.30804458 0.35668755
00000000: 06f7 6c3e eb60 9d3e d947 843e 3f48 aa3e
00000010: a21e 593e 9e56 a03e 05b8 9d3e c09f b63e

child_modules.1.0.weight f4 [256, 69]
-0.070436604 0.09902666 -0.071336165 -0.1791249 -0.01595547 -0.09623137 -0.16525482 -0.16020553
0.10328062 0.081884496 0.085567884 0.0059411605 -0.1322434 0.014896911 -0.011645718 -0.033972148
0.0038643104 -0.0007983993 0.020560639 -0.022733431 -0.040691286 -0.021345722 0.015120815 0.023152798
-0.003636881 -0.0008147982 -0.027950162 0.036818042 -0.022913428 -0.034084875 -0.024703613 -0.046814058
-0.11045642 -0.13285159 -0.17848128 -0.06814338 -0.09870275 -0.07209063 -0.053482424 -0.120234884
-0.12773497 -0.024833765 -0.067311406 0.0041364944 0.02885909 0.057370838 0.017982109 0.13555424
0.04692772 -0.004864448 -0.004472228 -0.0127873225 -0.0830788 -0.13862833 -0.13673279 0.04396832
-0.1768726 -0.1620411 -0.11653904 -0.11722837 -0.11303957 -0.087964565 -0.043390896 0.032859594
0.09500466 0.10024577 0.079123385 0.016881205 0.0698507 -0.101896 0.01198475 0.19702621
-0.005192428 0.029142555 0.095970154 0.03858412 0.019922273 0.10190604 0.026885811 -0.058477964
0.0725691 0.121664 0.041686434 -0.027535094 -0.08120027 -0.0011645049 0.057612635 -0.062134687
0.0094119245 -0.032575242 -0.00529357 -0.019790472 -0.04219088 0.024566738 -0.07266473 0.07564226
0.0004557972 0.060009655 -0.08661716 0.054593977 0.08443073 -0.06079917 -0.018586053 -0.0020184002
-0.09622714 -0.013033796 0.024010545 0.0027714372 0.08485782 -0.036676776 -0.07064287 -0.026471678
-0.10865601 -0.04958876 -0.11147343 -0.12854463 -0.0020761488 -0.039538506 -0.039777152 -0.0148653
0.010920733 0.11776075 0.02767536 -0.04051881 0.07870098 0.05764908 0.030452665 -0.022005327
-0.007161932 -0.07772605 -0.02370837 -0.014914047 -0.07033575 -0.07667637 -0.061376467 -0.03309504
0.1272657 0.42254728 0.039537746 -0.027085401 -0.32293007 -0.4582544 0.044582937 0.009484347
-0.057634838 -0.05518358 0.014277818 0.06561602 -0.103849106 0.0076325177 -0.12676658 -0.01902519
0.029914564 0.04820369 0.03228451 -0.0292391 -0.036065552 -0.031667713 -0.00711321 -0.006552572
0.004917334 -0.03346484 0.0029935506 -0.0024286502 0.021446519 0.13018964 0.010712988 0.10474079
-0.022535216 0.008783983 0.029445209 -0.0049055894 -0.094503865 0.040259633 -0.029483061 0.043583646
0.033619247 0.08466236 0.008710532 -0.005569438 0.025160696 0.022222873 0.11045335 -0.0709581
-0.06672348 0.12301802 -0.1415586 0.051089957 0.02276202 0.06458904 0.10090735 2.4831596e-05
-0.05313561 0.08937193 -0.028983582 0.07939599 0.071288414 0.048368547 0.014898279 -0.06673967
0.012535814 -0.034372095 0.046889912 -0.06658377 0.024871828 -0.0069073336 0.5509996 0.08331117
0.016760051 -0.013296809 -0.14898098 0.017099168 -0.031411767 -0.0452758 -0.11947427 0.08596871
-0.060755774 0.030539064 -0.021353213 -0.0027043654 0.020606222 0.05471171 -0.008051175 0.011860263
0.044452336 -0.06739597 -0.026061755 0.00787115 -0.023302471 -0.010703366 -0.011451874 -0.008742945
-0.026540231 0.05441705 0.038074076 0.10464256 -0.023044562 -0.013976735 0.019784998 -0.0049861767
0.011709591 0.03716334 0.0024428365 -0.05825294 0.00018408867 -0.09332344 0.022526775 0.054939125
-0.025784409 0.052289248 0.046558525 0.06709984 0.024126127 0.022058856 0.094519675 -0.049020976
00000000: 1141 90bd 7dce ca3d b218 92bd 856c 37be
00000010: 0cb5 82bc f414 c5bd 8f38 29be eb0c 24be
00000020: ca84 d33d 0fb3 a73d 373e af3d 11ae c23b
00000030: d06a 07be 2c12 743c aecd 3ebc 6126 0bbd
00000040: 5f40 7d3b ac4b 51ba c96e a83c 763b babc
00000050: e8ab 26bd 39dd aebc 4bbd 773c f0aa bd3c
00000060: bd58 6ebb 2e98 55ba bdf7 e4bc 84ce 163d
00000070: f1b4 bbbc 959c 0bbd 3b5f cabc 19c0 3fbd
00000080: fa36 e2bd 3f0a 08be ccc3 36be c28e 8bbd
00000090: ab24 cabd 41a4 93bd 6310 5bbd b53d f6bd
000000a0: f5cc 02be 2e70 cbbc 90da 89bd 6e8b 873b
000000b0: e669 ec3c affd 6a3d 374f 933c bbce 0a3e
000000c0: 4837 403d f365 9fbb c58b 92bb eb81 51bc
000000d0: 3825 aabd 96f4 0dbe ae03 0cbe 2018 343d
000000e0: 171e 35be 1aee 25be 05ac eebd 6d15 f0bd
000000f0: 4a81 e7bd c426 b4bd a7ba 31bd c897 063d
00000100: ce91 c23d a74d cd3d 710b a23d 744a 8a3c
00000110: e20d 8f3d daae d0bd af5b 443c 3dc1 493e
00000120: 3e25 aabb 5ebc ee3c 008c c43d 620a 1e3d
00000130: 0934 a33c 1db4 d03d a23f dc3c 9786 6fbd
00000140: 1c9f 943d fa2a f93d 65bf 2a3d 4791 e1bc
00000150: 544c a6bd 4da2 98ba 3afb 6b3d f180 7ebd
00000160: 7934 1a3c 9e6d 05bd af75 adbb a11f a2bc
00000170: 58d0 2cbd 2f40 c93c 3fd1 94bd 54ea 9a3d
00000180: 11f8 ee39 afcc 753d 5664 b1bd ef9d 5f3d
00000190: 05ea ac3d 8d08 79bd c741 98bc 2347 04bb
000001a0: bc12 c5bd b48b 55bc c3b1 c43c 00a1 353b
000001b0: f0c9 ad3d 633a 16bd 36ad 90bd 22db d8bc
000001c0: 0b87 debd 951d 4bbd 2f4c e4bd 34a1 03be
000001d0: ff0f 08bb 21f3 21bd 5eed 22bd 968d 73bc
000001e0: e0ec 323c 8c2c f13d 70b7 e23c 0df7 25bd
000001f0: fb2d a13d 7121 6c3d de77 f93c 8444 b4bc
00000200: a4ae eabb d62e 9fbd 0e38 c2bc 0c5a 74bc
00000210: 310c 90bd 8008 9dbd e465 7bbd aa8e 07bd
00000220: f151 023e 1e58 d83e 55f2 213d 34e2 ddbc
00000230: 1757 a5be 52a0 eabe 999c 363d 3c64 1b3c
00000240: 8212 6cbd 2d08 62bd 82ed 693c b161 863d
00000250: d7ae d4bd 331a fa3b 19cf 01be b7da 9bbc
00000260: 630f f53c 3c71 453d c33c 043d d686 efbc
00000270: 79b9 13bd 01b6 01bd ee15 e9bb f5b6 d6bb
00000280: 9621 a13b 6e12 09bd 722f 443b fd29 1fbb
00000290: 9cb0 af3c 6f50 053e 8785 2f3c 5782 d63d
000002a0: c69b b8bc b2ea 0f3c 1437 f13c 11bf a0bb
000002b0: 3e8b c1bd 49e7 243d 7686 f1bc c484 323d
000002c0: 56b4 093d 7663 ad3d 9fb6 0e3c d57f b6bb
000002d0: ce1d ce3c be0c b63c 5e35 e23d 7b52 91bd
000002e0: 52a6 88bd dff0 fb3d bdf4 10be b443 513d
000002f0: 6a77 ba3c 4247 843d 83a8 ce3d 724d d037
00000300: baa4 59bd a108 b73d fa6e edbc 5d9a a23d
00000310: a9ff 913d 191e 463d e917 743c cfae 88bd
00000320: 0463 4d3c c1c9 0cbd a30f 403d 125d 88bd
00000330: 01c0 cb3c ea56 e2bb 4f0e 0d3f 0c9f aa3d
00000340: 604c 893c dcda 59bc 788e 18be 8e13 8c3c
00000350: a0a9 00bd 1e73 39bd edae f4bd 5d10 b03d
00000360: 0cdb 78bd 0f2d fa3c efec aebc b93b 31bb
00000370: 61ce a83c 6319 603d 13e9 03bc 8c51 423c
00000380: a713 363d e606 8abd 767f d5bc fff5 003c
00000390: d3e4 bebc 2c5d 2fbc a4a0 3bbc 923e 0fbc
000003a0: e66a d9bc 6ae4 5e3d 90f3 1b3d d74e d63d
000003b0: f3c7 bcbc adfe 64bc 2614 a23c 1563 a3bb
000003c0: 96d9 3f3c 9638 183d ff17 203b a39a 6ebd
000003d0: ed07 4139 5c20 bfbd 128a b83c d907 613d
000003e0: d339 d3bc 402d 563d 27b4 3e3d a46b 893d
000003f0: 28a4 c53c c6b4 b43c 8893 c13d 38ca 48bd

child_modules.1.0.bias f4 [256]
0.06941244 0.06359731 -0.04164233 -0.12499919 -0.047659747 -0.06668588 0.059650473 0.072028056
0.025031786 -0.055381153 -0.05570911 0.0651287 -0.030445935 -0.020639252 -0.043846484 -0.17228647
-0.027134843 -0.15069713 -0.04098458 -0.16466983 -0.04231573 0.034011245 0.06743979 0.01908076
0.027843332 0.022207133 -0.06507012 -0.00031820108 0.23813336 -0.107696146 0.0020629107 -0.17651081
-0.038331885 0.02864991 0.11901246 -0.016799014 0.034049466 -0.12023387 -0.18252683 0.15050854
-0.106741026 0.03604149 -0.040501717 -0.027701039 0.088996075 -0.120152615 0.11115628 -0.009715821
0.015904551 -0.0018340492 0.050590843 0.01770013 0.06210928 -0.03723977 0.066707335 -0.2664589
-0.24917908 0.056814644 0.013706919 -0.053855523 -0.058946393 -0.05853425 -0.06562731 -0.038728394
0.015225007 0.03607617 0.20553254 0.07964332 0.034778673 0.06324778 -0.084591314 0.04625991
0.21454273 0.13156062 -0.29789442 0.0046291794 -0.09833546 0.039758295 -0.047514144 0.045733947
0.0075589377 0.009178597 0.098673515 0.22142595 -0.059376433 -0.0009314511 -0.084870204 0.04555081
-0.17775483 -0.044745225 0.036671408 0.034226798 -0.07834049 -0.013428826 0.0016581689 0.05388354
-0.16314262 0.036160465 0.14164849 0.04629271 0.03716618 0.09335064 0.085288435 0.025376894
0.023703305 0.0074956324 0.09212789 -0.021808231 -0.010599051 -0.07824349 0.099226445 -0.01679178
0.01036126 0.0806491 -0.18611924 -0.039050806 -0.014407723 0.038110822 -0.061619073 0.036833268
0.01665582 -0.12052242 -0.12778246 -0.14506291 0.02161157 0.057216294 -0.007381549 -0.009835868
0.18016404 -0.039882727 -0.0440155 -0.0833994 -0.019055076 -0.03777753 0.27070367 -0.070781246
0.057814494 -0.048050936 0.0024229654 -0.0025246285 0.03422037 -0.0029839915 -0.1037706 0.013186248
-0.075794026 -0.057477828 0.123281255 -0.007838053 0.0112341745 -0.012485052 -0.049123358 0.061925836
0.007683284 -0.034571532 -0.043860074 -0.13084885 -0.092470326 0.04548838 -0.019933548 -0.055762805
-0.0074522058 0.08729848 0.023585353 0.10891233 0.0062920647 -0.12766865 -0.19247518 0.07816103
-0.02992993 -0.05381062 0.034559965 0.08550276 -0.029012512 -0.012237008 0.087051585 -0.11732199
0.019235052 0.0011784806 -0.15438415 -0.06940302 -0.018601114 -0.015326552 0.0020486212 0.03469052
-0.015917735 -0.016344886 -0.18541978 -0.040889516 0.007952825 0.029856632 0.033031475 -0.020375812
-0.05025475 0.13535382 -0.024338959 0.06826425 0.088541925 0.07581561 0.12768507 -0.107896805
0.097594246 -0.043401785 0.1241327 0.015094238 -0.047095824 0.03103543 -0.04029097 -0.083700605
0.022398846 0.024421215 0.12006514 0.09572938 0.017697042 0.03932764 -0.05314668 -0.072525635
0.017866585 -0.07025027 -0.078329824 -0.05039491 -0.034902092 0.009313647 -0.15478963 0.0062404424
0.05847216 -0.03950401 0.02555492 0.133248 -0.10074943 0.019905813 0.14712055 -0.03501048
0.019918807 -0.02410735 0.079135984 0.011364847 0.10370423 -0.03908982 -0.032792497 -0.054816984
-0.05822772 -0.0035044719 0.003434693 0.19796985 -0.0106452 0.022969741 0.0035026942 -0.08917528
0.026035737 -0.056388944 -0.046608966 0.06771969 0.017968789 0.035584033 -0.04269541 -0.04983908
00000000: 1c28 8e3d 4e3f 823d 2691 2abd 93ff ffbd
00000010: de36 43bd 9b92 88bd 0e54 743d 7283 933d
00000020: 760f cd3c 59d7 62bd 3c2f 64bd 3262 853d
00000030: c169 f9bc a613 a9bc 5f98 33bd dd6b 30be
00000040: e449 debc 5950 1abe 72df 27bd 359f 28be
00000050: 4253 2dbd 604f 0b3d df1d 8a3d 414f 9c3c
00000060: b317 e43c bceb b53c 7c43 85bd 3ad4 a6b9
00000070: 3bd9 733e cc8f dcbd e631 073b 40bf 34be
00000080: e501 1dbd 37b3 ea3c cebc f33d 169e 89bc
00000090: 7477 0b3d 2d3d f6bd 50e8 3abe e91e 1a3e
000000a0: 0a9b dabd 3ea0 133d 21e5 25bd 4aed e2bc
000000b0: 9343 b63d 9312 f6bd e7a5 e33d 1b2f 1fbc
000000c0: 434a 823c 7b64 f0ba 5838 4f3d ddff 903c
000000d0: 4d66 7e3d bb88 18bd db9d 883d 4d6d 88be
000000e0: cd28 7fbe 79b6 683d fc92 603c 9c97 5cbd
000000f0: c671 71bd 9cc1 6fbd 9c67 86bd aaa1 1ebd
00000100: 4f72 793c 9bc4 133d 1f77 523e 091c a33d
00000110: 1574 0e3d 0d88 813d 363e adbd 087b 3d3d
00000120: 17b1 5b3e d4b7 063e 9e85 98be 5fb0 973b
00000130: 1a64 c9bd 98d9 223d 319e 42bd 8553 3b3d
00000140: f7b0 f73b d361 163c 5715 ca3d 7cbd 623e
00000150: b434 73bd a02c 74ba 6ed0 adbd 7c93 3a3d
00000160: 5d05 36be c546 37bd c234 163d 6631 0c3d
00000170: fb70 a0bd 9404 5cbc ea56 d93a fdb4 5c3d
00000180: dc0e 27be ff1c 143d 4d0c 113e 6d9d 3d3d
00000190: 903b 183d 9f2e bf3d b4ab ae3d 34e3 cf3c
000001a0: 6f2d c23c ec9d f53b 8cad bc3d 2da7 b2bc
000001b0: a4a7 2dbc 1f3e a0bd 3c37 cb3d ea8e 89bc
000001c0: 46c2 293c 5b2b a53d 0b96 3ebe bdf3 1fbd
000001d0: 5f0e 6cbc 181a 1c3d 4864 7cbd 7bde 163d
000001e0: c971 883c 75d4 f6bd 68d9 02be 5f8b 14be
000001f0: bf0a b13c a25b 6a3d ece0 f1bb 9f26 21bc
00000200: ec7c 383e 125c 23bd 9949 34bd 4ecd aabd
00000210: 6419 9cbc 9cbc 1abd ac99 8a3e c2f5 90bd
00000220: e4ce 6c3d 0fd1 44bd 9dca 1e3b 3d74 25bb
00000230: a92a 0c3d 128f 43bb ae85 d4bd 220b 583c
00000240: e639 9bbd df6d 6bbd e27a fc3d 2d6b 00bc
00000250: 8b0f 383c 1b8e 4cbc 9335 49bd f2a5 7d3d
00000260: 0fc4 fb3b e19a 0dbd 9fa6 33bd 3efd 05be
00000270: 1561 bdbd 0652 3a3d ae4b a3bc 8a67 64bd
00000280: a231 f4bb 8cc9 b23d 1236 c13c 6d0d df3d
00000290: aa2d ce3b 92bb 02be 3718 45be e412 a03d
000002a0: 9d2f f5bc 8668 5cbd c08e 0d3d 121c af3d
000002b0: a6ab edbc bb7d 48bc 1a48 b23d 8346 f0bd
000002c0: d492 9d3c 3f77 9a3a e116 1ebe 2c23 8ebd
000002d0: 5d61 98bc 381c 7bbc 2942 063b a617 0e3d
000002e0: e965 82bc b6e5 85bc afde 3dbe c47b 27bd
000002f0: 914c 023c e595 f43c 034c 073d 2deb a6bc
00000300: edd7 4dbd 319a 0a3e 7f62 c7bc 21ce 8b3d
00000310: 7855 b53d 3745 9b3d e0bf 023e 00f9 dcbd
00000320: 7edf c73d 12c6 31bd 4939 fe3d d34d 773c
00000330: 8de7 40bd 043e fe3c 2508 25bd 396b abbd
00000340: c97d b73c 000f c83c b6e4 f53d c40d c43d
00000350: 63f9 903c 0516 213d 55b0 59bd 5288 94bd
00000360: f25c 923c 60df 8fbd 636b a0bd e56a 4ebd
00000370: 7ff5 0ebd 4498 183c 2c81 1ebe a07c cc3b
00000380: 8180 6f3d f5ce 21bd 8d58 d13c 2a72 083e
00000390: b855 cebd 8411 a33c c5a6 163e 2667 0fbd
000003a0: c42c a33c c77c c5bc 0c12 a23d a033 3a3c
000003b0: e262 d43d a61c 20bd 6d51 06bd c687 60bd
000003c0: 3180 6ebd 48ab 65bb 9618 613b 9cb8 4a3e
000003d0: 3469 2ebc 0a2b bc3c 758d 653b 87a1 b6bd
000003e0: e648 d53c 18f8 66bd 0be9 3ebd 9fb0 8a3d
000003f0: 4833 933c 90c0 113d 62e1 2ebd 1024 4cbd
