data/ni/trp-homeostatic_shaped2022-09-23-00-16-16default-10-10NI-red/90000000/model.pt (torch, 283835 bytes, 13 tensors)

child_modules.0.fc.0.weight f4 [256, 69]
00000000: 673a 3abd 4f6a f3bb ff2a 17be f115 e73d
00000010: 72ef aabd 08b6 debe 62ab 6abe 2cfa 5c3d
00000020: b4c0 e33c 4d1a ff3c a386 5cbc 9a9a b9bc
00000030: e94c 993d d7fa 36be fc3b cebc 6254 e03c
00000040: 7526 ac3b 91df 5bbd d915 3a3c 773d e0bd
00000050: 5ef2 efbc 0755 c3bd 9d93 ff3c 5022 233a
00000060: 60d6 2f3d d07a f73c 8f7f 303e 041a 9a3d
00000070: ed76 88bd 3588 59bd f910 e73d a44e 9c3b
00000080: 31f4 4e3d 1d9a 123e 8640 dcbd 4ce2 f6bd
00000090: ebc6 4c3d d64d 133d f51e 013e e5e8 973d
000000a0: b32c b0ba 37e1 e33d c0c2 883c 762d 98bd
000000b0: 982d 9a3d f8ad a63c 668e 44bd dbef c33d
000000c0: 2cc8 74bd 1ee7 6e3d cf30 66bd 9f22 223e
000000d0: 76c3 d13c 42df 11bd 4338 123e 294e ccbd
000000e0: 8de3 7d3d c730 cb3d 712a e53d 35be cabc
000000f0: fa30 103e e80c 8e3d 99c7 183e 9477 993d
00000100: 4bc6 07be 1931 8dbe cef9 873d 4636 92bf
00000110: d5aa b0bc 7fe8 32be 3b2f 193e c1e0 02bc
00000120: 330f 233c c4d1 2e3e ddac b53d 08ed 2ebe
00000130: cce4 053e 91e9 e03d 226b acbd 24a5 d03d
00000140: ff88 a9be 97ad cfbc 42e4 ab3d 3d96 2dbd
00000150: 9670 c63d 652d 313c e66b 07be 7d5d e3bd
00000160: cb3c cabc fa92 b53d 0cd3 013e 4624 28bc
00000170: 58e3 643d cb08 5ebd 3a42 e63d ecaf b9bc
00000180: 43bf e23c 2339 27be 9ef2 103c 0a0d 223e
00000190: 9cd5 643d dca9 a9bc 84e0 843e 3745 e43d
000001a0: 0c19 f5bd b489 023e 94ae b5bd f5f9 e23d
000001b0: f719 e2bc 0361 8e3d f4ee debb 5c6c cb3d
000001c0: cf5a 823d ff0d 133e 1543 d03d ef00 ff3d
000001d0: 0fa2 dcbb 850b 113e 7ce7 3d3d 8e5b 08bd
000001e0: f2ff 6c3d 2031 e23d 7770 edbc 6f89 713e
000001f0: 2080 0bbe 3e68 0bbe b1c5 bcbd 95ee 2c3e
00000200: 2de3 513d 932c b9bc 9b29 ff3d 4c72 a0be
00000210: 57b0 60be 3d74 a4bd ab16 813c 4bc9 23be
00000220: 5482 e33d f68a b0bc 8082 993d a52b 3e3e
00000230: 129f 843e b149 933e 397e 12be fb59 c4bd
00000240: 20d5 813e c89b cdbd b90c 843d eaae af3e
00000250: d5ab d63d 456f 373b ea9e 35bd c896 9abd
00000260: bb40 acbd 6f6b dcbd 5fb4 11be 39f5 cfbd
00000270: cf3a d0bc bdba 01bd 7b06 0d3e 52bf d2bc
00000280: 6427 213d 1151 933e 5b7a 9c3d 738c 563e
00000290: 77de d0bd 064a 223d 9d99 9a3d e369 07be
000002a0: 53a1 863d 251f 13bd 37e8 203e a3be 95b9
000002b0: 7595 723c faef b13d 20e3 3c3d 2242 cbbc
000002c0: 64bc 9bbd 64fa b0bc c440 253e 53f1 4bbc
000002d0: 5767 eebd 598b 083d f109 0abe 6eac 10bd
000002e0: 1213 c1bd 56dc aa3d 9356 13be e18a bf3b
000002f0: 6f67 e33c 1680 44bd c611 0a3d 3570 d03d
00000300: 331f 56bd e1a6 36bc 72d8 543d 95af 173d
00000310: d3f5 b43d a5e5 003e b9ca 3c3d 513d 01be
00000320: 8974 6a3d d7ed c0bd 145d e13c 7806 553d
00000330: c3cc d9bb 8a21 aa3e e450 983d 49f5 193a
00000340: 270b abbd 5d35 293d 76d7 0dbe 3b56 013d
00000350: f9f9 64be 62d4 f83d b735 c03e 06ac 343d
00000360: f67a 723c 057f f73d 6006 ebbd 513d 363e
00000370: 62bf 4bbc dfcd f43d a7dd 013e 59cb 203d
00000380: a8fc ff3c a02c 393c 6cea e7bd a86d 003d
00000390: 1599 2b3e a05b 30be 2a4d 8b3d be8b 533d
000003a0: 24b3 26be 54ba ecbc f3fe b03d ba83 363d
000003b0: 4989 013e d737 513e 592b 683e 5308 f53d
000003c0: 839d d53d ad1a 773d db37 443e f4c0 8f3d
000003d0: bab7 973d bf45 bf3d fb3a c13d e43d a93d
000003e0: e987 f6bd 36a9 fdbc e455 8bbd 5a3d cc3d
000003f0: 3120 34bd 7280 c93d bc58 2c3e c25b ef3c
-0.045465853 -0.0074284445 -0.14762495 0.11283482 -0.08346452 -0.43498254 -0.2291694 0.05394952
0.027801849 0.03114047 -0.013459834 -0.022656728 0.074853726 -0.17869125 -0.025175087 0.027383987
0.005253608 -0.053680006 0.011357748 -0.109492235 -0.029290374 -0.09537702 0.031198317 0.00062230695
0.042929053 0.030209929 0.1723616 0.07524493 -0.06663308 -0.053108413 0.11282534 0.004770117
0.050525848 0.14316602 -0.10754494 -0.120548815 0.04999439 0.035962902 0.12609465 0.07417468
-0.0013441056 0.11126941 0.016694427 -0.07430546 0.075282276 0.020346627 -0.047987364 0.09567233
-0.05976121 0.05832588 -0.05619889 0.1583352 0.025605898 -0.035613306 0.14279275 -0.09975845
0.061984587 0.09921413 0.11189736 -0.0247489 0.14081183 0.069360554 0.1491989 0.07493511
-0.13259237 -0.2757652 0.06639443 -1.1422813 -0.021565834 -0.17471503 0.14959423 -0.007988156
0.009952354 0.17072207 0.08870862 -0.17082608 0.1307556 0.10982049 -0.084188715 0.10187748
-0.33112332 -0.025351329 0.08393146 -0.042379607 0.09689443 0.010814046 -0.13224754 -0.11101816
-0.024687191 0.08865924 0.12678164 -0.0102625545 0.055880874 -0.054207604 0.112431005 -0.022666894
0.027679091 -0.1633039 0.008846907 0.15825287 0.055867776 -0.020710878 0.25952542 0.11146014
-0.11967668 0.12747842 -0.08871189 0.11082832 -0.027600272 0.06952097 -0.006803388 0.09932777
0.063649766 0.14360808 0.10169045 0.1245135 -0.006733186 0.1416455 0.04636334 -0.03329044
0.057861276 0.11044526 -0.028984291 0.23587583 -0.13623095 -0.13613984 -0.09217394 0.16887887
0.051242042 -0.022604262 0.124591075 -0.31337202 -0.21942268 -0.08029983 0.01575788 -0.15994756
0.111088425 -0.021550637 0.07495594 0.18571337 0.2590261 0.2876716 -0.14305963 -0.09587475
0.25357914 -0.100394785 0.06447739 0.34313136 0.10481993 0.0027989906 -0.044341005 -0.075482905
-0.08410784 -0.10762679 -0.14228962 -0.101541944 -0.025418667 -0.031672228 0.13772003 -0.025725994
0.039344206 0.28772786 0.07640525 0.20952015 -0.10198682 0.039621376 0.07548831 -0.13223986
0.06573739 -0.035918374 0.15713583 -0.0002856153 0.014806141 0.0868835 0.04611504 -0.024811808
-0.07604292 -0.02160377 0.16137987 -0.012447673 -0.11640804 0.033336017 -0.13480355 -0.03532069
-0.094274655 0.08342807 -0.14388494 0.005845413 0.027759282 -0.047973715 0.033708356 0.10177652
-0.052275848 -0.0111481855 0.05196423 0.037032682 0.0883595 0.12587602 0.04609177 -0.12621047
0.057240043 -0.09420364 0.027510203 0.052008122 -0.006646724 0.33228713 0.07437304 0.0005873037
-0.083517365 0.041310657 -0.13851723 0.031576376 -0.22360982 0.12149884 0.3754098 0.044109367
0.014799824 0.12084774 -0.11475825 0.17796828 -0.012435766 0.11953329 0.1268221 0.039256427
0.031248406 0.011302143 -0.11324009 0.031354576 0.16757615 -0.17222452 0.06801827 0.05164694
-0.16279274 -0.028897442 0.08642378 0.044559218 0.12650026 0.20431457 0.22672786 0.11964478
0.104304336 0.060328174 0.19161932 0.07019225 0.0740809 0.09339475 0.09435078 0.08263758
-0.120376416 -0.030964475 -0.06803492 0.099726394 -0.043976013 0.09838952 0.16830724 0.029218558

child_modules.0.fc.0.bias f4 [256]
00000000: 9594 15bc 1b58 d3bc bf9a 163d ebbe 2a3d
00000010: 2898 8d3c a891 233d c2cf 763d 55e0 6cbd
00000020: 6f83 733d ad27 563d 4b83 8cbd 6b5a c5bc
00000030: 00c5 c1bc 674d 6ebc da4c 63bd e474 84bc
00000040: 52e7 12be 8468 123e 02ca 1ebd eb91 aabd
00000050: 47f1 00bc ddee 35ba 24f3 81bd f7cd eb3c
00000060: 2076 84bd cc9f 0ebd 07e4 083c 244e e9bb
00000070: 1ee6 0dbd ebcb 673c 733c 663d 3cee 083d
00000080: c186 533d 7ef9 023d 9812 b3bc 4edb 1ebd
00000090: d866 823d 6e73 b6bc f948 953d e7aa 6dbd
000000a0: fab0 37bd 533a 233c a88b 3fbd 3bde 9fbc
000000b0: 9874 363d 52c5 b33c 3460 863d e9aa d2bd
000000c0: 0d4c ba3d d0ff a73c fe03 023d b066 5dbc
000000d0: edbf 3b3c ce96 843d fdae b8bd 1357 253d
000000e0: 93fb a3bd b33c 5bbd c626 2e3d 7c25 9fbc
000000f0: f68b 2fbd 568f 5d3c 2276 91bd de26 413c
00000100: 8d51 f1bc e3e8 aebd 6b92 3cbc f504 94bc
00000110: 9c5c f83c 144a f53c a35c 253d 579c bc3b
00000120: c816 4d3d 2ed1 153d dd9e 443d 11ab 97bd
00000130: f924 3c3c 7a08 70bc c01f 2d3c 45c1 2e3d
00000140: 251f 073e a570 7a3b 2949 b7bc 039e febc
00000150: c881 a3bd 03ad a7bd 1284 3a3b 2f76 533c
00000160: 2b7d c9bc e0e2 313d 9ffc 763d 23d4 ec3b
00000170: 3def af3c aef5 c6bc a860 2bbd 3a48 55bd
00000180: efa2 8cbd f775 d6bc b211 103e 7860 0d3a
00000190: d8d3 1cbd a00b 93bc 8231 ae3d 8934 b8bc
000001a0: 9dfa 643d 1514 2abd b2b6 ea3c d35c 11bd
000001b0: f917 07bd f06f 58bd c9d6 bdbc c57c be3b
000001c0: f56c 15bd 3d90 9e3c 4160 5d3d c0d9 363d
000001d0: fc18 9e3c 43e7 f1bd 8412 2f3b fe86 54bd
000001e0: c5c5 3cbd 53cd 7abd 3b2b 68ba f35f 803d
000001f0: 2fdc 19bd 3c39 853d f906 0dbd c135 86bc
00000200: 803c bcbd fcee 633c 2466 643c 5c66 a1bd
00000210: 961f bebd cf61 5d3b 0a8b acbb 1dd9 1a3c
00000220: 1cc2 95bc 9e76 85bd d0d7 03bd 1ea4 abbd
00000230: f7d6 24bd c738 1c3d 6450 55bd c303 793b
00000240: 4625 223c 9f30 78bb e16f 103d 89ee 813c
00000250: 1a33 89bc b48a 873c 25ac a9bd 426a 89bd
00000260: df7a 1fbd dc80 1f3b b142 2b3c f8f1 c63c
00000270: 5648 28bd ae9a c6bc acc6 0f3c f849 41bd
00000280: 75fa bf3c 0b37 30bc b778 653d 8404 9cbd
00000290: 8113 a6bb f0f1 37bc eaab 0fbd d0f0 583d
000002a0: 151a a6bb 9a9f 3fbc 7b72 1cbd 1e64 56bd
000002b0: 3cb0 233d c551 223d 578f 2cbd 2180 6b3d
000002c0: 5b7a fa3b fa8e 10bd 92ca e13d 0f9e cdba
000002d0: 1f65 9dbc bfad 3d3c b3dc 773d f00c 2b3d
000002e0: 5cd6 16bc ada6 053d 9542 0bbc 07c0 31bd
000002f0: fe09 173d 103a b2bc 157d 6e3d eede 533c
00000300: a1d0 813d bbb4 943d 8099 dcbb 8f2e a2bd
00000310: cf2f 1d3d 31c3 2abd afb2 53bb 77fc 53bd
00000320: 33ca 093d 33b0 53bb f58f a73c 8411 823d
00000330: 2441 cebb 4e3b e1bd 3b70 7bbc bdaa 9e3c
00000340: 13d6 e73c f1b1 e63b 2ae8 4a3d c942 9cbb
00000350: 1151 de3c 8580 ebbc 6513 41bd 0f9b 803d
00000360: 4c3e cf3c 6932 35bd 7672 8d3d 7b51 223c
00000370: 9ec7 303d 2ec7 0ebd 89e6 353d 0c0a 863c
00000380: 929b 313d f287 fbbb aa71 d53c 6f09 5ebc
00000390: dbeb 3bbd 2c72 ae3c 3c68 e23c 7f28 cb3c
000003a0: 85fa 82bb a8f2 f2bb 8f11 ae3b 0a47 f83c
000003b0: fb52 88bb b1fe ee3c e52e 6fbd 1adf 09bd
000003c0: 205c c73c 0978 80bd b8a7 e93c 4f19 19bd
000003d0: 87a4 cf3c aaa1 a1ba d607 b8bc 7bf3 cdba
000003e0: a5b8 d8bc 377e b0bc d65d 5f3b e832 1abd
000003f0: d313 a83c ef94 a33c fe0d 94bc dc58 9ebc
-0.009129663 -0.025798848 0.03676867 0.04168598 0.017284468 0.03993383 0.060256727 -0.057831127
0.059451517 0.05228393 -0.0686098 -0.024090966 -0.023653507 -0.014544821 -0.055493213 -0.016169019
-0.14346054 0.14297682 -0.03876687 -0.08328613 -0.007870025 -0.00069401955 -0.063452035 0.028784735
-0.06467843 -0.034820363 0.008355147 -0.007119911 -0.034643285 0.014147739 0.056209993 0.033430323
0.051642183 0.031976216 -0.021859452 -0.038783364 0.06367272 -0.022271838 0.07289309 -0.058024313
-0.044846512 0.009962636 -0.046764046 -0.019515147 0.044544786 0.021944676 0.06561318 -0.10286505
0.09096537 0.020507723 0.03174209 -0.013513252 0.011459333 0.06474076 -0.09017751 0.040366244
-0.08006968 -0.053524684 0.042517446 -0.019427054 -0.042858087 0.0135229435 -0.0710261 0.011789052
-0.029457832 -0.08540513 -0.011509518 -0.01806877 0.030317597 0.02994255 0.04037155 0.005755942
0.050070554 0.036576442 0.048003066 -0.07405675 0.011483424 -0.0146504585 0.010566652 0.042664785
0.13195474 0.0038214114 -0.022373753 -0.031081205 -0.07983738 -0.08187296 0.0028460068 0.012906595
-0.024595818 0.043429255 0.060299512 0.007227437 0.021476382 -0.024287071 -0.041840225 -0.052070834
-0.068670146 -0.026179297 0.1406925 0.0005393098 -0.038287967 -0.01794988 0.085055366 -0.022485988
0.055903066 -0.041523058 0.028651569 -0.035488915 -0.032981846 -0.052841127 -0.023173707 0.0058132135
-0.036480863 0.019355888 0.054046873 0.044641256 0.019299023 -0.11811688 0.0026713917 -0.05188655
-0.046087045 -0.06123097 -0.00088565395 0.06268301 -0.0375635 0.06505057 -0.034430478 -0.016383054
-0.09191227 0.013911959 0.013940368 -0.078808516 -0.09283368 0.0033780222 -0.005265598 0.009451178
-0.018281035 -0.06516765 -0.032188237 -0.08380912 -0.04024407 0.038140085 -0.05207862 0.0037996627
0.009896582 -0.0037870777 0.035262946 0.015860813 -0.016748 0.016545631 -0.08284787 -0.0670972
-0.03893554 0.002433828 0.010452912 0.024285302 -0.04108461 -0.024243679 0.008775394 -0.047189683
0.023434857 -0.010755311 0.056023326 -0.07618049 -0.005068243 -0.011227116 -0.03507606 0.05296403
-0.005069027 -0.011695767 -0.038195115 -0.052341573 0.039962992 0.039628763 -0.042128887 0.05749524
0.0076439804 -0.035292603 0.11024965 -0.0015687364 -0.019213257 0.011577069 0.06051321 0.041760385
-0.009206381 0.032629658 -0.008499761 -0.043396022 0.036874764 -0.021756202 0.058224756 0.012931569
0.06338621 0.07261034 -0.006732166 -0.079190366 0.038375672 -0.041690055 -0.0032302549 -0.05175444
0.033640098 -0.0032301068 0.020454386 0.06350997 -0.0062943865 -0.109976396 -0.015346582 0.019368524
0.02830032 0.0070402552 0.049537815 -0.0047687036 0.027138265 -0.028747806 -0.047137637 0.06279575
0.02529826 -0.044237528 0.06906597 0.009907122 0.04315912 -0.03485792 0.04440931 0.016362213
0.043361254 -0.007676118 0.026055176 -0.013552054 -0.045879226 0.021294676 0.027637593 0.024799583
-0.0039971494 -0.007414181 0.0053121517 0.030307312 -0.0041602827 0.02917418 -0.05839433 -0.03366003
0.02433592 -0.06272895 0.028522357 -0.03737765 0.025347007 -0.0012331505 -0.022464674 -0.0015712822
-0.026455233 -0.021544559 0.003408303 -0.037646204 0.020517265 0.019968478 -0.018073078 -0.01932948

child_modules.0.fc.2.weight f4 [64, 256]
00000000: c296 8fbe 29e5 183e d922 353b 0b7d 6abe
00000010: e068 203c e39d b5bc 2b3a f0bd ad5a f83d
00000020: decb 1ebd 2f01 93be 41ae 813e 51df 213e
00000030: 9dc2 5a3e 522a 803d 2e57 ae3d 1e8a 2a3e
00000040: 55d1 7e3e 7b5b e1bb e726 8fbd 8ecc 923e
00000050: 727a bd3c d74a 913d 546a 8c3d 3dac 873e
00000060: 3934 f0bc 23db b73c 1c84 0bbd 8fb8 253d
00000070: ec3a 41bd 66c7 2d3e f009 2b3e 51df b1bb
00000080: 8bcd d2bd 2b4b 293e cbb9 2fbd f281 1dbe
00000090: aa81 56be 3d4f 15bb bb30 d73c 5317 51be
000000a0: c91b bdbd 5e35 043c f73e 6f3e 0f0b f83d
000000b0: 1bc4 eabd ad33 2fbe 9bd2 363e d98c 643d
000000c0: af6e 14bd e809 24bd e464 01be 73b0 2d3e
000000d0: dd62 74bd 4edf 00be bba8 203e 30c7 71be
000000e0: 47f7 d73d c90d 8b3e 8e4e d23c a4fa 8ebd
000000f0: e784 ccbd cb71 ecba 6258 0a3e 482d 78bd
00000100: f202 0abe eec2 6cbd 4478 323d 1321 363e
00000110: 8c15 9b3e d6a0 4ebe e4b9 543e 9c71 873e
00000120: d0f9 1d3e 8cfb b5bc f24d 21bd c605 6abd
00000130: 9f35 e9bd 5334 3abe fda9 533e 7a7e 39be
00000140: d29e 8cbe ea66 27be 9450 4e3d 2456 02bd
00000150: 41ed 583d da99 523e f008 d83e b440 df3d
00000160: 6ef9 35be 6946 e9bd f7b8 0dbe 8a3f 1abe
00000170: da32 033e f6a9 173e b109 203e 3373 453d
00000180: f2f5 e33d 7f30 76be 0339 5dbe 8d4a b5bd
00000190: 7836 0fbe b2d1 3d3b 6bd2 bcbe 828c 1f3e
000001a0: 1200 3bbe b026 073e bbff 4ebe 31fd e8bd
000001b0: bdd9 5a3e 8135 2fbe e170 2fbd 63f8 64be
000001c0: 64d0 6e3d 68e8 c1bd aa92 04bb 7f90 d83d
000001d0: 6837 5d3e e226 b03d 27e0 69be f624 06be
000001e0: be4d 99bd d5f7 20bd 046f 7ebd 55f6 61bd
000001f0: 30f4 233e bab1 a8be b35c 14be 1b2f 1b3e
00000200: 230c e23d 1592 bdbd 0488 48be bf2f 183e
00000210: 94bc 2ebd aa92 d93b 5319 d4bd 2783 383e
00000220: 6054 8ebd c78d b13e a296 693e 93ff 7c3d
00000230: a6c3 9a3e 947c b63c bfe0 083e 30bc 4f3d
00000240: da0f ec3c 9809 823e 97ec 97bd 5c87 cabd
00000250: 4f7d 223e 4bb5 f63d d303 db3c cf5e 383d
00000260: 9535 0c3c bc96 9abd 6a66 5cbe 1f06 183e
00000270: 21fc 40bc 9ff5 5abd ddb1 78bc 3ccf 86bc
00000280: 4b0a f8bd fdc1 58bd 2ce1 92be 275e 833d
00000290: 5dd6 973d 8797 ea3d a3e6 573d 0e63 373d
000002a0: a1d2 113e 1f53 8f3e 8dee 6ebe 87ae 513d
000002b0: 53de adbd f0bf 41be ed1f a8bc b3ce af3d
000002c0: 8748 acbd bc40 93be 014f 1ebe 8dc4 363d
000002d0: 1a78 b53d a03e a73e db0d 14bd 24c6 f8bd
000002e0: 3945 adbe bcad 833e 7441 383e d3df 273d
000002f0: 3c43 ae3c 4fe6 fabb 013d a2bd 1964 1cbe
00000300: 3211 3fbe a9d8 25be 7d27 e3bd a1be 783d
00000310: d4db 14bd f148 be3e 28b2 e9bc 6f3f abbd
00000320: ca55 89bd 35e7 0a3d b8a2 813b e1e6 cdbc
00000330: 6bd0 5bbd eb60 0d3e b2f6 41bb 412d d63c
00000340: 0d3a 99bd 3524 99bd 3322 2abe 1b39 1fbe
00000350: b313 01bd 0d32 1dbd 1130 8e3d 1119 d63d
00000360: 9fd9 45bc ffff 61bd 4f1c 96bd 9335 363e
00000370: 4424 fa3d 8661 eebd d86d 8d3e 0ccc d43c
00000380: 4454 58be 6c80 083e 4dca 1d3c c993 c33d
00000390: 12dd ab3c 8ef4 ffbd 39f1 4c3e 398a e73d
000003a0: 440b 853c de90 a73c c725 3c3e 2c05 703e
000003b0: e8c7 1e3d 9cac be3d 1a45 ba3d 44ed 22be
000003c0: 6feb 2abc c2e5 2a3e 09ab a1be 56f0 943d
000003d0: 2463 e3bd c12a 41be aac6 06be a4bc a13d
000003e0: 7d3b 10bd 4a1e 3b3e 3287 3b3d 6085 bdbd
000003f0: cf46 24bd f13b d3bd 25aa 3fbe 5ec9 013d
-0.28044707 0.14931168 0.002763918 -0.22899263 0.009790629 -0.022170013 -0.11729845 0.1212667
-0.03876864 -0.2871184 0.25328258 0.15807845 0.21363302 0.06258072 0.08512722 0.1665425
0.24884541 -0.0068773604 -0.06989842 0.28671688 0.023129676 0.07094353 0.06856218 0.26498595
-0.029321777 0.02244336 -0.034061536 0.040459212 -0.047175333 0.16970596 0.1670301 -0.0054282327
-0.102931105 0.1653258 -0.042901795 -0.15381601 -0.209479 -0.0022782825 0.026268354 -0.20419054
-0.09233815 0.008069364 0.23363863 0.12111484 -0.114631854 -0.17109556 0.17853777 0.055798385
-0.03623837 -0.04004851 -0.12636143 0.16961841 -0.059664596 -0.12585184 0.15689366 -0.2361114
0.10545211 0.27158955 0.025672223 -0.069814 -0.099862866 -0.0018039284 0.13510278 -0.06059006
-0.13477686 -0.057803087 0.043571725 0.17786054 0.30289876 -0.20178542 0.20774037 0.26453865
0.15427327 -0.022214673 -0.039380975 -0.057134412 -0.113871805 -0.18184023 0.20670314 -0.18114653
-0.2746492 -0.16347852 0.050369814 -0.03182043 0.052960638 0.20566502 0.4219432 0.10901013
-0.17770931 -0.11390383 -0.1384009 -0.150633 0.12812367 0.14810929 0.15628697 0.048205566
0.11130895 -0.24041937 -0.2160378 -0.0885211 -0.13985622 0.00289641 -0.36879286 0.15580943
-0.18261746 0.13198352 -0.20214741 -0.113764174 0.21372123 -0.17110254 -0.04283226 -0.22360377
0.058304206 -0.09468156 -0.002022902 0.105744354 0.21603167 0.08601166 -0.22839414 -0.13100037
-0.07485531 -0.03929885 -0.06211759 -0.05516656 0.16011119 -0.32948095 -0.14488487 0.15154688
0.11037471 -0.092563786 -0.19583136 0.14861964 -0.04266031 0.006639798 -0.10356393 0.1801878
-0.06949687 0.3467848 0.22811368 0.061767172 0.30227393 0.0222762 0.13366984 0.05071658
0.028816152 0.25397944 -0.07418173 -0.09889099 0.15868114 0.12046298 0.026735222 0.04501229
0.008557697 -0.075482816 -0.21523443 0.14846085 -0.011778862 -0.0534569 -0.015179125 -0.016456239
-0.12111338 -0.052919377 -0.28687418 0.064144425 0.074139334 0.11454683 0.052710187 0.0447722
0.14240505 0.27993104 -0.23333187 0.051191833 -0.084896706 -0.18920875 -0.020523036 0.085843466
-0.08412271 -0.28760326 -0.15459825 0.04462104 0.08860798 0.32664967 -0.036146026 -0.12147167
-0.33841875 0.25718486 0.17993718 0.04098494 0.021272294 -0.0076568495 -0.07921792 -0.15272559
-0.18658903 -0.1619593 -0.11091516 0.060728673 -0.036342457 0.37165025 -0.028527334 -0.083617084
-0.06705816 0.033911902 0.003956165 -0.025134506 -0.05366556 0.13806503 -0.0029596505 0.026144626
-0.074817754 -0.07477609 -0.16614608 -0.15549128 -0.031512927 -0.03837781 0.06942762 0.10454
-0.012075811 -0.055175778 -0.07329618 0.17793874 0.12213948 -0.11639695 0.27622867 0.025976203
-0.21125895 0.13330239 0.009630752 0.09549672 0.020979438 -0.12497817 0.20013894 0.11305661
0.016240723 0.02045482 0.18373786 0.23439473 0.038764864 0.093102664 0.09095211 -0.15910822
-0.010432108 0.16689208 -0.31575802 0.07272403 -0.11102894 -0.18863966 -0.13161722 0.078973085
-0.035212982 0.18273273 0.04578323 -0.09253955 -0.04010659 -0.10314167 -0.18717249 0.03168618

child_modules.0.fc.2.bias f4 [64]
00000000: f8ae d8bd 81b1 cf3c c9b9 c7bb 5ed7 993d
00000010: 3ead 8cbd cf36 9e3d 95db 07bc 5fca d8bc
00000020: 16f1 673d c5a9 2cbd ee16 9d3c bb7e 613d
00000030: 9654 103d a2f4 4abd 8f4c 463d 99f3 32bd
00000040: bb00 c23c a29d bfbd b37f 47bd d369 43bd
00000050: 2190 da3d 1276 99bd 8aca 623c c3ef a7bd
00000060: 0fbc c33c f743 3f3d 963a 0d3b aef4 f03c
00000070: b76c dc3c 8f13 2f3d 2cde a93c 57a1 afbd
00000080: 2107 de3d a915 fcbd 3e94 083d cc06 ac3c
00000090: 5876 9b3b 83aa 1c3d 7f27 31bd cf42 a03c
000000a0: 583f f3bd d418 6b3d d464 a43d a937 4e3d
000000b0: 12d2 1fbe 3bbc af3d be48 94bc 2eb2 2a3a
000000c0: f801 fe3d c57e 5c3c 74d5 c0bd 5b03 b83d
000000d0: 3ffa 05bb 023f b9bd f225 dcbd ebde 3fbd
000000e0: ee7c 213d 056e 81bc 68f9 d33d 6cd5 6dbd
000000f0: ffdf a53d 4ef3 043e ca2f bcbc 2451 8a3d
-0.10580248 0.025353195 -0.0060951454 0.07511781 -0.06868981 0.07725298 -0.0082920985 -0.026463686
0.0566264 -0.042154092 0.019175973 0.0550525 0.035236917 -0.049549706 0.048412856 -0.043689344
0.023681989 -0.09356238 -0.048705768 -0.047708344 0.10672022 -0.07493223 0.013842234 -0.08200028
0.023893384 0.046695676 0.0021549813 0.029413547 0.026907308 0.042743262 0.020735823 -0.08575695
0.108412035 -0.12308819 0.0333445 0.020999335 0.0047443323 0.03824855 -0.043250557 0.019563107
-0.11877316 0.057396725 0.08027044 0.05034605 -0.15607479 0.08580824 -0.018101092 0.0006511536
0.12402719 0.013457959 -0.09415713 0.08985015 -0.0020443348 -0.09045221 -0.10749425 -0.04684345
0.039425783 -0.015799532 0.10350305 -0.058064863 0.080993645 0.12983438 -0.022972006 0.067537576

child_modules.0.fcc_c0.weight f4 [8, 64]
00000000: fd09 3ebe c5ea 2b3f 81fa 5d3c 8c9e 663d
00000010: 333c af3d b514 d43e a0b4 b23e 620b 4ebe
00000020: 919b 153f ad2e a9be 5544 a33e 537d 9a3e
00000030: cb38 393e f1b6 30be 1f97 543d 17d0 5f3e
00000040: a80a d8bd aabb f43d a7d6 a6bd e7f1 053f
00000050: 3612 be3d 03f4 30bf 99bd 39bd 9a92 89be
00000060: 13c2 e43e ad25 823d 0e37 773e 172a 2bbf
00000070: 30f7 973e 4dd6 84bd 4de6 49be 2df1 91be
00000080: e7ce 663e 9128 27bf 6126 8b3e bedf 573e
00000090: a556 733f 21ec 993e 90e3 463f d9e8 713e
000000a0: 5a9b e7be 0a28 ce3e 4f88 2b3e 2bc4 883f
000000b0: bca1 00bd 08dd b63e f985 4abe abbe 35bd
000000c0: 813a ce3e b7eb cebe b026 3fbe bbb8 e73d
000000d0: e9f4 debd 1f27 96bd 35f1 8cbe f718 dbbe
000000e0: 2937 aabd e70e cd3e 1f4f 33bd 6793 4abd
000000f0: 791e 663e ab10 ce3e f3cf 15be df85 d43e
00000100: a0ad 83be 927c 3cbe daf6 9c3e d846 98be
00000110: fbd8 b1be bf36 af3e 5218 bf3e 60b7 72bd
00000120: 2bb2 8d3e 789c 95be 92b3 a4bc 8567 56bd
00000130: 8c34 083f 0920 b8bd 1f51 373f 494c 14bf
00000140: 4382 b73e dba9 5dbe 0da0 c9be 047b 59be
00000150: 3d64 f43d ffd8 1abe e2b3 10bd b8b3 353e
00000160: d835 383f a19b 0e3f 78a3 b2bc f63c abbe
00000170: 0436 143f c6b8 f2ba 2541 343e a21f 2fbe
00000180: 4bec 613e 2ea0 24be 3146 9ebe d366 1dbe
00000190: 2a27 68be 1120 d33e dc7c 1ebf 118c 683e
000001a0: b320 8cbe 1dbd f23e 078c 0d3e 32e0 15bf
000001b0: 216e 38bd 0f21 923e 4971 29be d86b b6be
000001c0: fc91 e63e 0e66 783d 0069 e5bd df08 2f3e
000001d0: 1da3 ebbe 00c7 a2be c30e 31be 6885 5a3e
000001e0: f30b 923e d996 0d3e ec0a 023e bce0 a4be
000001f0: 90d3 903e 878f c13e ec91 c8bc b2cb 7c3e
00000200: b40c 45be 7f13 0c3e 7600 44bc 1346 ce3b
00000210: 8fd8 17be f233 823e 42cf 253f 8893 febe
00000220: b5f5 3bbe cb2c 18be 0c7f 893e 3119 72bd
00000230: 1b98 853e db27 4e3e 5204 453e 3e10 86be
00000240: 5af2 943e d85f 09bd 6788 7ebe 8769 cfbc
00000250: 5ac4 9c3d e5a5 923c d434 633e 9eda 92be
00000260: 358a eb3c 5242 233f 4860 7cbd 1138 45be
00000270: 6621 cb3e df0c 6dbf 83f9 20be 7e2e d9be
00000280: 457c aa3e cae4 20bf 18d0 babb c07f d6be
00000290: c4ab 053f 7d2c da3e 4e59 18bc a5f5 083f
000002a0: 4bd3 18be 6c5c 803e e61c a33e 91d5 863e
000002b0: a872 4dbd 54d5 a83e 365f 19bf 399f 59bc
000002c0: 690f 9a3e 1f6f 683c 99ea 0b3d 2246 923d
000002d0: aeb3 19bf fc69 2abf 47d1 293e 6f85 ecbe
000002e0: 137c ccbe a62c 143e a7e5 ee3e 55fb 333d
000002f0: 55f8 e03e 2d7b 153e 8924 7cbe 9918 6c3e
00000300: 4e9c 55be 5fcf bbbe f7cf 703e 5273 d33c
00000310: 43de a9be 6d03 af3c 3275 e83c 04eb eb3c
00000320: e98c 48be fa56 f4be 8083 003f c5fd 7d3e
00000330: 740a 843e 7f46 95be 1835 4f3e e5be 45be
00000340: 4e16 3a3f 65df c8be ea3c e5bb 8fdf bdbe
00000350: 0de4 5f3e 5abb 8bbe 1dce 6e3e f177 19bf
00000360: e6b2 0d3f becc 3a3e 7bda c23e 6df1 ecbe
00000370: 6a84 e63e efc0 883d 557c 1a3e 9400 0dbf
00000380: 0b73 3e3e d44f 8dbd 3c83 3c3e bdaf c33d
00000390: 3c6b e33d 0c05 0f3e df43 043d e45b 903e
000003a0: a9d2 86be 24ae 833e fae2 303e 7ca4 1d3e
000003b0: 15b2 5abe bd70 d33e e4aa 403c fdaf 97be
000003c0: 8f84 1c3e 1334 20bf 7fae 5fbe 3dc0 8d3e
000003d0: 679e e6bd 1164 12be e17a d7be 30e5 33bd
000003e0: 121a cc3e e8c7 0f3e b4d6 633e 39d1 86be
000003f0: 1026 623e 385f 893e 1d53 0bbf bd7a f13e
-0.18558498 0.67155105 0.013548494 0.056303546 0.08556404 0.41422048 0.3490343 -0.2012153
0.584405 -0.33043423 0.3188807 0.3017374 0.18088071 -0.17257287 0.051901933 0.21856724
-0.105489075 0.119498566 -0.081464104 0.5232224 0.09280817 -0.6912233 -0.04534683 -0.2686966
0.44679317 0.06354842 0.24142095 -0.668611 0.29680777 -0.06486187 -0.19716759 -0.28504315
0.22539864 -0.65296274 0.27177718 0.21081445 0.95054084 0.30062965 0.7769098 0.2362398
-0.4523571 0.40264922 0.16751216 1.0684866 -0.031404242 0.35715508 -0.19777669 -0.04437129
0.4027901 -0.4041421 -0.18667102 0.113145314 -0.10886557 -0.073316805 -0.27527776 -0.42792484
-0.08311302 0.40050432 -0.043776628 -0.04945698 0.22472562 0.40247092 -0.14630108 0.41508386
-0.25718403 -0.18406895 0.30657083 -0.2974155 -0.34735855 0.34221455 0.37323242 -0.05925691
0.27674994 -0.2922094 -0.020105157 -0.052344818 0.5320518 -0.08990485 0.71608156 -0.579289
0.3584157 -0.21646826 -0.39379922 -0.21238333 0.119331814 -0.1512184 -0.0353278 0.17744339
0.7195716 0.5570622 -0.021806464 -0.33444947 0.5789492 -0.0018518202 0.17602976 -0.1710191
0.22062795 -0.16076729 -0.30912927 -0.15371256 -0.2267119 0.41235402 -0.6190927 0.22709681
-0.27368698 0.47409907 0.13822947 -0.5854522 -0.045026902 0.28540847 -0.16547121 -0.35629153
0.45033252 0.060644202 -0.11201668 0.17093228 -0.46022883 -0.3179245 -0.17290787 0.21339953
0.28524742 0.13827075 0.12699479 -0.3220271 0.2828641 0.37804815 -0.024483643 0.24687079
-0.19243127 0.13679312 -0.0119630005 0.0062949746 -0.14828704 0.25430256 0.64769375 -0.49721932
-0.18355449 -0.14860837 0.26854742 -0.059106056 0.2609261 0.20132391 0.1923993 -0.26184267
0.2909115 -0.03353867 -0.24856721 -0.025318874 0.076546386 0.01790137 0.22188121 -0.28682417
0.028752426 0.6377307 -0.06161526 -0.19259669 0.39673918 -0.92597765 -0.15720181 -0.42418283
0.33297935 -0.62849104 -0.0057010762 -0.4189434 0.5221522 0.42612067 -0.009298636 0.53499824
-0.14924352 0.25070512 0.31857985 0.26334813 -0.050158173 0.32975256 -0.59910905 -0.013282591
0.30089882 0.01418665 0.034159277 0.07142283 -0.60039794 -0.6656797 0.16583739 -0.46195552
-0.3993841 0.14470157 0.46659586 0.04394086 0.43939462 0.14597769 -0.24623312 0.23056258
-0.20860407 -0.3668165 0.23516832 0.025811825 -0.33177385 0.021363938 0.028376196 0.028798588
-0.19585003 -0.47722608 0.50200653 0.24803837 0.25789225 -0.29155347 0.20235097 -0.19311102
0.72690284 -0.39232937 -0.006995787 -0.37084624 0.21864338 -0.27291375 0.23320813 -0.5994864
0.553511 0.18242165 0.38057312 -0.46277943 0.450229 0.06677424 0.15086491 -0.5507901
0.18598573 -0.06899992 0.18409437 0.09555004 0.11104438 0.13966769 0.03229129 0.28195107
-0.26332596 0.25718796 0.17274085 0.15394777 -0.21356995 0.4129695 0.0117594935 -0.29626456
0.15284942 -0.6257946 -0.21843909 0.2768573 -0.112606816 -0.14295985 -0.42085937 -0.043919742
0.3986364 0.14041102 0.22249871 -0.263315 0.22084832 0.2683046 -0.54423696 0.47163954

child_modules.0.fcc_c0.bias f4 [8]
00000000: 472a 533e 0f6f 893e e693 7a3e 75fd 623e
00000010: a2c8 9a3e 1839 383e 02b5 963e 1468 733e
0.20621596 0.26842543 0.24470481 0.22166999 0.30231196 0.1799053 0.29434973 0.23770171

child_modules.0.fcc_c1.weight f4 [8, 64]
00000000: a35b 8fbe 3de1 0bbf 6420 853e 24b3 b13e
00000010: 43b7 09bf efe2 a53d dc9c 3fbe c8d0 3abe
00000020: 1a64 5ebe 0ff9 13be aca3 a53d 64db 31be
00000030: b33f 913e 5990 65be 1827 9f3e c7f4 0abf
00000040: 84a2 b93e 4684 edbe 42f3 77be 86e0 33bf
00000050: 15f2 ab3e 7a95 c53d f369 aa3d 0646 833e
00000060: 9c4f 78bd f86c c63e 067e 933c e726 2f3e
00000070: 74ec fb3d d0ff 11be 797b e33e a052 2bbe
00000080: ffc5 8b3e d8e9 d13d 2ad3 50bc fe2d a6be
00000090: 5db1 f6be ec4f 503e 43da 9abf 855f 8b3e
000000a0: cafe c1bd ce4d 7e3e 1a3f bc3e aff5 55bf
000000b0: 6351 d7be aa0b 483d add2 74be 6972 6fbe
000000c0: 3972 223e a7cd d03e e640 9abe da6c d63e
000000d0: e065 15bd 3f97 babe 74c5 5fbe 72ab bfba
000000e0: 25e7 1f3f 112f 05bf d8dd ef3e 7d65 8dbe
000000f0: eeff 8c3e c03e 3c3e ed30 7cbe bcc6 123e
00000100: d317 9fbe fb94 ff3e fdcb 8abe 3df6 053f
00000110: 7a7e 40be e503 2a3e 1e87 40be 974f c6be
00000120: 6f2c a33e 2cc6 57be c9d2 8b3e 4ff9 ad3d
00000130: 3fe5 dbbc 77c7 a8be 52e2 80be 2a5a 6d3e
00000140: e66d 2cbe cc94 c4be 3619 16be 1ebf 033e
00000150: 5714 e83e 4805 43be fa06 fa3c 93de 07bf
00000160: 063e b5be 2c77 c23d b41c c73e 2ac5 bf3d
00000170: ff31 0bbe 4128 9cbe 5091 3a3e 4267 93be
00000180: 4126 c93e d166 7bbe 9923 013f d206 12be
00000190: 5090 293f e37f 23be 1f3a 663e b69c bf3e
000001a0: e8fd 81be 1e87 b13d d251 d93e c9d1 6d3f
000001b0: e8e1 bdbe 9554 1e3e 0702 cfbe 90b3 c9bd
000001c0: 010d 003e c04a f2bd 13d2 a4be edbd e73e
000001d0: b288 b03e c1f2 2cbe 2084 cdbe c5c2 2bbf
000001e0: 5b23 85bb cdbe 22bd 33fe 963e ebbc aebc
000001f0: 3ae6 b43e eacf c33d ba75 8cbe 27ae c33e
00000200: 34d6 b0be 7eb9 98bc 9d52 9e3d d8dd a13e
00000210: d2d7 bebe 64bf a43e dcf6 fdbe 8d27 c33d
00000220: a8c8 f03e 0c74 84be 5b42 7ebe 3030 1f3e
00000230: 2533 643e 4b11 d3be 57f7 8c3e a87b dd3c
00000240: debf cfbd e02d 21bf a716 82be 1db5 dbbd
00000250: 4e41 c53e 43f3 febe 7e5a a3be 5610 47bd
00000260: ece0 513e 0d74 c4bd 3496 d63e 42ac b3be
00000270: 6b56 083e 9dcb 073f aae9 cd3e a6d5 8b3d
00000280: 769e 3c3e 4635 323e 6297 d93e d384 3d3e
00000290: 84d4 2b3b 4dda bebd 02eb d0be 9b02 b03d
000002a0: 640f a2be 67ad 523e bc0d 713e 6f3e e7bd
000002b0: 0004 75be 35b9 073e 36a6 83bd 0438 f5be
000002c0: 704b ac3e cc6c 1c3e b778 22bf 4ac2 cb3e
000002d0: 94f8 c03e 7d45 0d3e de61 27bf 18af 0ebd
000002e0: 0039 443f 3da7 98be ee74 e0bd 022b a9be
000002f0: 9033 3a3e 1a7c a03e 963c 3e3e 7f07 853e
00000300: b15e bbbe 6908 c73e d8b1 c63d ca9d 6e3e
00000310: 5afc e9bd 2ba4 1f3f e07e 74bc 3e26 04bf
00000320: eff5 203f 89fc a7bd 3717 f0bd 6944 5e3c
00000330: 358c c23e 5441 13bd d450 843e 6c3e 273e
00000340: ff59 71be fdff 08be 61c7 07bf fea2 653e
00000350: 6fa5 9b3e c5b4 90be 3a74 f9bd 5bd9 9a3e
00000360: 4864 92bd 6d67 b03e 01dc a1bd 5d7b e43d
00000370: 0322 303e c8e9 3cbe b241 d83d f055 71bd
00000380: f949 b33e d87f dabe 6979 423e 3c47 2abe
00000390: f769 b63e d8d9 473e de95 15bf ca67 603e
000003a0: 87a7 b0be cc9d 403e 2203 c93e d76e 913e
000003b0: c2c3 3dbc 43be eb3c a268 21bf 838a 45bd
000003c0: a7ff 063f 52b4 223f 6545 3dbe 3f37 9a3e
000003d0: 0fc6 99bd 4867 adbe baf5 b4bd 0271 10bf
000003e0: 7d4f eebc 1c9b 52be 51c1 8b3e 19ea 34be
000003f0: f252 ca3e e70e 6a3e c8b8 a63e ea99 913d
-0.279996 -0.5464056 0.26001275 0.34706986 -0.5379526 0.08099925 -0.18712181 -0.18243706
-0.21717873 -0.14450477 0.080878586 -0.17368847 0.2836891 -0.22418346 0.31084514 -0.5427975
0.36256802 -0.4638998 -0.24213889 -0.7026447 0.3358313 0.09647651 0.083209895 0.2563936
-0.060622796 0.38755012 0.018004429 0.17104684 0.12300959 -0.14257741 0.4443014 -0.16730738
0.27299497 0.1024968 -0.012745658 -0.32456964 -0.48182192 0.20342988 -1.2097858 0.27221313
-0.09472425 0.24834368 0.36766893 -0.8357801 -0.4205428 0.04883925 -0.23908491 -0.23383488
0.15863885 0.407819 -0.3012764 0.41879922 -0.03647411 -0.36443517 -0.21852666 -0.0014623238
0.62462074 -0.5202494 0.4684894 -0.27616492 0.2753901 0.18383312 -0.24628039 0.14333624
-0.31072864 0.4991835 -0.27108756 0.52328855 -0.18798247 0.16603048 -0.18801543 -0.38732597
0.31869838 -0.2107169 0.27309254 0.084948175 -0.026842711 -0.3296468 -0.2517267 0.23178926
-0.16838798 -0.38394773 -0.14658055 0.12865874 0.45328018 -0.19044983 0.030520905 -0.53073996
-0.35398883 0.094953865 0.38889086 0.09363778 -0.13593291 -0.3049946 0.18219495 -0.28789717
0.39286998 -0.2455094 0.5044494 -0.14260414 0.6623583 -0.15966754 0.22483109 0.37424248
-0.25389028 0.0866835 0.42445236 0.9289823 -0.37086415 0.15461953 -0.40431234 -0.09848702
0.1250496 -0.11830664 -0.32191524 0.4526209 0.3447929 -0.16889478 -0.40139866 -0.6709407
-0.0040630526 -0.039732743 0.29490814 -0.021330317 0.353319 0.09561141 -0.27433568 0.38218805
-0.34538424 -0.018643137 0.07730601 0.31614566 -0.37274033 0.3217727 -0.496024 0.09529028
0.4702809 -0.25869787 -0.2483 0.15545726 0.22285135 -0.4122413 0.27532455 0.027036503
-0.10144018 -0.62960625 -0.25407907 -0.10727904 0.38526386 -0.4979497 -0.31904978 -0.048599564
0.20495957 -0.095924474 0.4191147 -0.3509236 0.13314216 0.53045064 0.40217334 0.068278596
0.18419823 0.17403135 0.42498308 0.185077 0.0026219198 -0.09318981 -0.40804297 0.08594247
-0.31652367 0.2057396 0.23540395 -0.11291205 -0.23927307 0.13254245 -0.064281866 -0.478943
0.33651304 0.15275878 -0.63465446 0.39796668 0.3768965 0.13796039 -0.6538371 -0.03483495
0.76649475 -0.29815093 -0.109598026 -0.33040625 0.18183732 0.31344682 0.18577799 0.25982282
-0.3659568 0.38873604 0.0970189 0.23302379 -0.11425085 0.62359875 -0.0149228275 -0.5162085
0.62875265 -0.08202464 -0.11723178 0.013566115 0.37997594 -0.035950974 0.25842917 0.16332406
-0.23569487 -0.13378902 -0.53038603 0.22425458 0.30399653 -0.28262916 -0.121803716 0.30243954
-0.071480334 0.34453908 -0.079032905 0.11156342 0.17200474 -0.18448555 0.105594054 -0.058919847
0.35017374 -0.42675662 0.18991627 -0.16628736 0.3562772 0.19516695 -0.58431804 0.21914592
-0.34502813 0.18810195 0.39260203 0.28404877 -0.011582317 0.028777247 -0.6305028 -0.0482278
0.52733845 0.63556397 -0.18483503 0.30120274 -0.0750848 -0.3386786 -0.08835931 -0.56422436
-0.029090637 -0.20566982 0.27295926 -0.17667426 0.39516407 0.22857247 0.32562852 0.07109435

child_modules.0.fcc_c1.bias f4 [8]
00000000: 86d1 8e3e d754 8e3e e039 883e 2cda a33e
00000010: ef7f 7e3e 0d8f ab3e 8911 9e3e 7ae0 3a3e
0.2789423 0.27799103 0.26606655 0.3200239 0.2485349 0.33507577 0.30872753 0.18249694

child_modules.1.0.weight f4 [256, 69]
00000000: 39e4 f5bd 2702 9a3c b7d6 e8bd d1f2 b33d
00000010: c419 27bb 48f5 57bd fa85 6fbe 68f7 d13d
00000020: 61d3 4c3e 6e81 453d fbe3 b73d fa1d 87bc
00000030: 3bce 55be 853c e2bb da37 f1bc bb65 403d
00000040: 958e ac3a d022 0abd 8205 6e3d 2cf0 b43c
00000050: f2fe 26bd 7603 daba edc0 1e3c 09a8 f13c
00000060: b85f 083b e002 113d 457c c4bc bfe1 06be
00000070: 6c58 253f a68b b6be f95b 5e3e 4e5f 74bd
00000080: 9f9c 00be 5285 9dbd d725 99bd 33ac 03bd
00000090: 2dae 53bd b17d b7bd 7dfe b1bd b006 38be
000000a0: c117 1ebe 5429 98bd ca93 93bc 5441 1a3d
000000b0: 6d7e db3d b360 7b3e f019 7d3e b0f1 3c3d
000000c0: b499 64bc dbf2 053c 246a d33c 4d1f aa3c
000000d0: 47cc 123b 91ac 6ebd 7177 d6bd b723 83bc
000000e0: 5915 dc3a 4b2e 0dbe 16e1 23bd 09a3 1abe
000000f0: d88e a3bc 1fc6 1dbd 029c 2fbb 114f e0bc
00000100: a028 bf3d f28e 55bb b8bc c43c 4ebe f6be
00000110: 13fa 623a 3087 41bd fdf3 a03c 18ae 3b3e
00000120: 2d60 c63d 712b 123d 1c3b 403d a8f3 30bb
00000130: 8fc9 d03c 0671 fb3d e503 3a3d 2eef 0a3a
00000140: 480c b53d 3cb4 b13d fc1b 0bbc 7fbb b33c
00000150: 91f5 70bd 7fd0 14bb b04e 6e3c d6f7 eabb
00000160: c6da 4a3c 6345 af3c dbeb a6bc 2f10 343c
00000170: df48 c7ba bbc9 f0bc 5376 eabc ce96 073d
00000180: 9188 343d c32d f83d ee4c 33be 2fc1 043e
00000190: cb12 6c3d 02cd 0cbe 9da1 99bd 16e5 e7bc
000001a0: d66b 23be 9c9b eb3c 1b8a b23c 2e0a 18bd
000001b0: 1acb ba3d 041e 74bd 0b55 87bd 3910 c23c
000001c0: 24c8 0cbe 7f43 113d a365 22be f777 43bd
000001d0: 7353 d3bd 83da 11be e262 03be bc63 c4bd
000001e0: 380b f7bc ab98 cb3d 94ae 713c 39a2 8abc
000001f0: 4680 8f3d c467 443d d6f1 413c 8f01 0ebd
00000200: bece 263a 3c8f bebd eebd 3abd 8e63 1bbd
00000210: 4504 33bd e166 44bd e0a3 a1bd b826 b0bc
00000220: 71ca 7ebd bb43 713d e3ca 263c d816 73bc
00000230: 9989 b5bd 5b6b 28bd d1c0 9bbd 9f97 873c
00000240: 2424 3fbd 18fb c8bd e3d7 f23c 2414 883d
00000250: b2a2 f4bd 0348 213b eae5 2dbe ef86 a1bc
00000260: c37a a6bc fc1b a53d 27a6 2d3d e2a7 67bd
00000270: 5b6e 92bd 1674 10bd 6ff4 33bd 6012 a1bc
00000280: 4a4e c6bc b335 8bbc 47e9 0cbc 9021 18bc
00000290: 35ba 8f3b 88d2 073d 6866 cd3e ff7f cd3e
000002a0: 5b75 223e 8e39 70bd 3a04 0ebe a1c3 29be
000002b0: f59c 2ebe 0130 d43d 4c70 9dbd b39d aa3c
000002c0: f6be 3bbd ddef 553c e231 c6ba 3d8b fa3a
000002d0: 6ef3 30bd f3ed b5bc 489c a03d e313 613c
000002e0: 932b 9abd 2892 173e 4d7b 90bd 025e e13c
000002f0: f146 3e3d e574 33bd 53d1 9a3d 1194 053c
00000300: 5eee a6bd d031 903d 4b45 64bd 31bc c73c
00000310: 246a 223d 50de c83c 4029 923b 5c83 98bd
00000320: 9737 c03c 3960 8fbb a8b1 9d3c b9f7 70bd
00000330: f42b 153d 05b6 0c3e 955d 9b3d 1ad4 b43d
00000340: a704 ce3c 8843 f13d 852f 5f3d fbc5 10bd
00000350: 7d53 873d 0a5a f9bc e5b0 44bd 0b44 7c3d
00000360: ad77 4bbd 0354 9c3c 8b81 c73d 7ced 413d
00000370: 44f5 683c 8764 1f3c 96fb ad3b 3f71 0f3d
00000380: f2ff bc3c 969a 5dbd af43 cbbb 8b50 fb3c
00000390: 32ae 753b 4da4 033d 78d5 0dbd b6bc 4abd
000003a0: 1123 c63b 0c51 dd3a 08f4 26bd fea4 4a3d
000003b0: 3418 c1bd 6deb 3fbc be2a 0e3d b762 e0bb
000003c0: af8e 823b 0070 503d 50a6 fc3b b86b e0bc
000003d0: 63dc cb3b 2682 3fbd 5342 7e3d d74c b83d
000003e0: f6ad dabc cb5e d33d 1b21 c73d ef5e de3d
000003f0: a332 513d 37e5 5bbd d624 c6b9 b700 a3bd
-0.12006421 0.018799854 -0.113690786 0.08786548 -0.0025497535 -0.052724153 -0.23390952 0.10252267
0.2000251 0.048219137 0.08979031 -0.016493786 -0.20879452 -0.006904187 -0.029445577 0.046972018
0.0013165051 -0.033724606 0.05811072 0.02208718 -0.04077048 -0.0016633112 0.009689552 0.02949907
0.0020809006 0.035403132 -0.023985038 -0.13172053 0.64588046 -0.35653418 0.21714772 -0.059661202
-0.12559746 -0.076914445 -0.074779205 -0.032146644 -0.05167978 -0.089595206 -0.08691118 -0.17971301
-0.15438749 -0.07429758 -0.018014807 0.037659958 0.10717473 0.24548607 0.24716926 0.04612893
-0.013952661 0.008175577 0.025807448 0.020766879 0.002239959 -0.05827004 -0.104720004 -0.016008241
0.001679103 -0.1378719 -0.04000958 -0.15101255 -0.019965574 -0.03851902 -0.0026795869 -0.027381452
0.093339205 -0.0032586423 0.02401577 -0.48192066 0.000865848 -0.047248065 0.019647593 0.1832813
0.09686313 0.03568596 0.04693137 -0.00270007 0.025486736 0.12277417 0.04541387 0.0005299923
0.08840233 0.08676955 -0.008490559 0.021939991 -0.05882794 -0.0022707281 0.014545128 -0.0071706576
0.012381261 0.02139539 -0.020376137 0.010990187 -0.0015204212 -0.029393068 -0.028620875 0.033102803
0.044075552 0.12118103 -0.17509815 0.12964319 0.05763511 -0.1375008 -0.075015284 -0.028307479
-0.15959105 0.028760724 0.02179437 -0.037119083 0.0912077 -0.059598938 -0.066080175 0.023689376
-0.13748223 0.03546476 -0.15859084 -0.04772183 -0.10318651 -0.14243512 -0.1283069 -0.09589335
-0.030156717 0.099412285 0.014751095 -0.016923057 0.07006888 0.04795052 0.011837443 -0.034669455
0.00063632044 -0.093046635 -0.045591287 -0.03793674 -0.043705244 -0.047949675 -0.07892585 -0.021502838
-0.062204782 0.058902483 0.010180208 -0.014836989 -0.08864135 -0.041118007 -0.07605136 0.01655179
-0.046665326 -0.09813517 0.029643958 0.066444665 -0.11945094 0.0024609573 -0.16982237 -0.019717662
-0.02032221 0.08061978 0.042394783 -0.05655659 -0.07149955 -0.03526696 -0.043934282 -0.019662082
-0.024207253 -0.01699338 -0.0086005395 -0.009285346 0.0043862113 0.033159763 0.40117192 0.40136716
0.1586508 -0.05864864 -0.138688 -0.16578533 -0.17052062 0.103607185 -0.076874346 0.02082715
-0.04583641 0.013057676 -0.0015121067 0.0019114983 -0.043200903 -0.02220819 0.07842308 0.0137376515
-0.075278424 0.14801848 -0.07054768 0.027510647 0.046454374 -0.04381265 0.07559457 0.008152978
-0.08150934 0.07040751 -0.055730145 0.024381729 0.039652005 0.02452007 0.004460484 -0.0744693
0.023464007 -0.0043754843 0.019249752 -0.058829997 0.03641887 0.1374131 0.07586209 0.08829518
0.025148703 0.11780459 0.054488678 -0.03534506 0.06607721 -0.030438442 -0.048020262 0.06158833
-0.04967468 0.019083029 0.09741505 0.047345623 0.014218632 0.009728557 0.0053095324 0.03502011
0.023071263 -0.054102503 -0.006203137 0.030678054 0.0037487862 0.03213911 -0.034627408 -0.049496375
0.0060466607 0.0016885116 -0.04076007 0.049473755 -0.094284445 -0.011713845 0.03470873 -0.006847705
0.0039842944 0.05088806 0.0077102557 -0.027395114 0.0062213405 -0.04675498 0.06207497 0.08999031
-0.02669428 0.10320815 0.09723111 0.10857951 0.05107368 -0.053685393 -0.00037792948 -0.07959121

child_modules.1.0.bias f4 [256]
00000000: 968f c3be 5458 2e3e 0d33 abbe 2b36 4d3d
00000010: 4926 08bd 2d82 383e 5226 04be 7080 263e
00000020: 9aa1 1abd 6fcd a83d 80bc 043d 9b20 4e3e
00000030: 648c 4cbd d6ef 99bd 1a8e 56bd fd09 b23e
00000040: d5ef 80be ea63 e9bc af73 23be d4a2 8f3d
00000050: e011 8b3c 9546 463c c6ab a83e 5905 0bbe
00000060: dc8d 1ebe ccc4 043e b9e4 323e 5be8 de3d
00000070: 2f08 9dbe cb3f ffbd 4e8b e53d 6ebc 4dbe
00000080: 45b5 91be 5f0a e23d e05c b73e c4ad 983d
00000090: 3367 3a3e fc7a f93b 0a75 1d3e 7a38 9b3e
000000a0: 7f3a 5abe 9f91 e3bd 784a c5ba 0a1a 923d
000000b0: a514 033e c3ce 5abe 5ef7 c4bc 5aed 563d
000000c0: 76d5 033e ba08 013b 523c c1be 6a9b 0dbd
000000d0: a42c 633e 3f15 66be 7ab4 cdbe fd22 b93e
000000e0: 297a 783e 87c1 8dbd c07b 0bbe e8aa 223d
000000f0: eaa4 133d 8f9a d83d 66c4 bb3d fcc1 e83e
00000100: aa95 c23d 718b e03c 478f 6c3e ddd7 3bbe
00000110: 3efd 3b3e 0476 63bb db96 4e3e 4da5 013e
00000120: e07e 76be b254 c53c c1a3 34be addc 463d
00000130: cf83 813d aff7 c2bd c1ea 9fbd f91b 5e3e
00000140: e440 723d b6ee 31bc 6a80 83be 3e47 8f3d
00000150: 3ae5 07be 6ba3 96bd c989 a8be 4d03 a73d
00000160: eecc b33c 3929 403c 0be6 edbe 97a7 9b3e
00000170: 44a1 d73d 9c38 30be 75a0 e93c 64e8 4a3c
00000180: e9d5 4e3e c018 4d3e 3240 1dbf a0e9 f1bd
00000190: fe9c 863e f8bc 45be 8867 81bd b252 8e3e
000001a0: 9339 6b3c 0b73 853e 83b6 93be a2bf 9bbe
000001b0: 4160 3bbc 3eb6 b4bb 525c 693d 5f90 3a3e
000001c0: c670 8d3d 8fd2 c1be 1c3c 46be bc5a 843e
000001d0: d01b 573d 4766 1b3e d0d1 8abd 9578 ef3a
000001e0: 5833 863d a0d3 79be bff7 503e 8097 863e
000001f0: 54c0 aabe b1e4 5f3e 6b17 11be b02d 3bbe
00000200: 435f 3cbe 6c3e 1cbe 42dc 9e3b 29f2 953e
00000210: ed61 133b 374a 883d 1e66 b5bd 545f 043d
00000220: b421 933d 67d0 c5be 68e5 d6bd 1879 3d3d
00000230: 12e6 813d 0624 493d e634 11be bfad 653d
00000240: f780 0fbe 090b e23e cad5 c33d 12d1 013b
00000250: 4836 dcbc 8631 8e3e 3afa 113d 603b c9be
00000260: 6de7 6ebe 34d1 c63c d59e 30be 6836 083d
00000270: aa03 9b3c 9dd3 fbbd 2bf3 643d a89d c9be
00000280: daa0 b3bc 98f6 b83d 3d58 a43b a97f 0e3e
00000290: 5f2e 623d 61c5 c33d 9ff8 26be cd0b c13e
000002a0: 2f34 593e c21b 843e 5c75 efbd 9135 bd3d
000002b0: e67a c33d ef69 313e 159f c33d 0994 243d
000002c0: 83f1 b1bd 9c19 063e 350d 4e3e 7e13 2ebc
000002d0: e7ed 753e 03e9 983d e4b7 e63d dc2a 3a3d
000002e0: 97fa 9a3e a3bb 193d 9df3 2bbe edf0 873d
000002f0: d868 bbbd f1cd 8f3e 481d 24bd 1a82 f93d
00000300: 6bb7 a83e 0ab0 133d 2fb1 9e3d a561 fcb9
00000310: 538c abbd 75b7 513e 3853 b4bd a345 9abe
00000320: b079 4bbd 823a 23be 7539 893d 0043 5cbd
00000330: 2229 f4bc a847 4f3d e03a e13d d3ef 0e3f
00000340: 68e4 8ebc 4669 cbbd 73d0 88be e493 4bbe
00000350: 24f2 87be a55d 853d 8016 163c bc2f a7ba
00000360: fb6c 263d d904 17be 42ee df3d 853c 98be
00000370: f578 503e fb40 bcbc fa65 0cbd bcba 06bd
00000380: 8b69 bc3e 817b 85be 72e3 9b3e 62d7 893e
00000390: a542 03be c3e5 933e cddf e9be 98a5 18bd
000003a0: 75af 65bd 0695 49be 61a9 bb3c 7f27 1c3d
000003b0: 7285 d1bd 26f6 24bb ef5d 8bbe 2e57 4f3e
000003c0: ec1c 503e f5c6 a4be b4a5 9fbc 0d1c 683c
000003d0: 75ce cabc ffcd d73d 8e8c 0f3d ca4c 923b
000003e0: 7ec0 8ebe 8291 033e 5580 6e3c d362 913d
000003f0: 4203 d9bc a160 2cbe 927e c03d 910f f6bd
-0.38195485 0.17025882 -0.33437386 0.050100487 -0.033239637 0.18018408 -0.12905243 0.16259933
-0.03775177 0.08242308 0.03240633 0.20129625 -0.049938574 -0.07516448 -0.052381612 0.34773245
-0.25182977 -0.028490026 -0.15962099 0.07013479 0.016976297 0.012101789 0.32943553 -0.13576259
-0.15483803 0.12965697 0.17470063 0.10884162 -0.30670306 -0.124633394 0.11208211 -0.20091411
-0.2845861 0.110371344 0.35813046 0.07455018 0.1820343 0.007613538 0.15376678 0.30316526
-0.21311377 -0.111117594 -0.0015052101 0.07133873 0.12800844 -0.21367936 -0.024043735 0.05247245
0.12874398 0.001968904 -0.37741333 -0.034572043 0.22184998 -0.22469042 -0.40176755 0.36159506
0.2426535 -0.06921678 -0.13621426 0.03971377 0.036045946 0.10576355 0.091683194 0.45460498
0.095012024 0.02741024 0.23101531 -0.18344064 0.18358323 -0.0034707794 0.20174734 0.12660713
-0.24071836 0.024088237 -0.17640592 0.048550297 0.063239686 -0.09519898 -0.07808448 0.21690358
0.059143916 -0.010860136 -0.2568391 0.0699601 -0.13271037 -0.07355388 -0.32917622 0.081549264
0.021948304 0.011728578 -0.4646457 0.30401298 0.10528806 -0.17209095 0.028518895 0.012384508
0.20198788 0.20028973 -0.6142608 -0.118121386 0.2629165 -0.19310367 -0.06318575 0.27797467
0.0143569885 0.26064333 -0.28850183 -0.30419642 -0.011436523 -0.005514889 0.05697281 0.18219136
0.069062755 -0.37855956 -0.19358867 0.25850475 0.05251676 0.15175734 -0.067783 0.0018270189
0.06552762 -0.24397135 0.20407008 0.2628746 -0.3334986 0.21864583 -0.1416909 -0.18279147
-0.18395714 -0.15258187 0.004848034 0.29286316 0.0022488788 0.0665478 -0.08857368 0.032317474
0.07184163 -0.3863556 -0.104929745 0.046258062 0.063427106 0.04910662 -0.14180335 0.0560739
-0.1401404 0.44149044 0.095622614 0.0019808454 -0.026881352 0.27772158 0.035639025 -0.39303112
-0.2333047 0.024269678 -0.1724809 0.03325501 0.018922646 -0.122962214 0.055895966 -0.39378095
-0.021927286 0.09031409 0.0050154016 0.13915886 0.055220004 0.095591314 -0.16305779 0.37704316
0.21211313 0.25802428 -0.116923064 0.092387326 0.095449254 0.17325567 0.09551827 0.04018024
-0.08688643 0.13095707 0.20122226 -0.0106247645 0.24016534 0.074663185 0.11265543 0.04545103
0.3026931 0.03753246 -0.1679215 0.0663775 -0.09150857 0.28086808 -0.040066987 0.12183018
0.32952437 0.036056556 0.07748639 -0.00048137936 -0.08376374 0.2048014 -0.08804935 -0.30131254
-0.049676597 -0.15940288 0.06700412 -0.053774834 -0.02980477 0.050605446 0.10997558 0.5583469
-0.017442897 -0.09932189 -0.26721534 -0.19880635 -0.26551926 0.06512002 0.009160638 -0.0012755315
0.040631276 -0.14747943 0.10934116 -0.29733673 0.20358641 -0.022980204 -0.03427694 -0.032892928
0.36799273 -0.26070789 0.30446965 0.26922137 -0.12818392 0.28886232 -0.4567856 -0.037267298
-0.056075532 -0.19685754 0.022907915 0.038123604 -0.10230531 -0.002517113 -0.27220103 0.202481
0.20323533 -0.32183042 -0.019488193 0.014166844 -0.02475665 0.105373375 0.035046153 0.0044647204
-0.27881235 0.12848476 0.014556964 0.07098927 -0.026490811 -0.16833736 0.09399141 -0.12014688
