data/cd/trp-homeostatic_shaped2022-09-19-22-12-55default-10-10/90000000/model.pt (torch, 283835 bytes, 13 tensors)

child_modules.0.fc.0.weight f4 [256, 69]
00000000: 7d76 e0bb 43cd ccbb 2afb 86be 87c1 7c3e
00000010: 22a5 42bd b68b 7cbe e004 0dbe 19b4 b73d
00000020: 55f0 f43b e2fc 443d 28f4 8b3d e2ad 05be
00000030: 440a 3d3e b5a7 50be 9c59 33be 8585 6ebd
00000040: 855c 7abd c26a 31be 210e 69be 3e2c c0bc
00000050: b3b9 e73d 0f8f 5abd f58a 4c3d bbd0 6f3e
00000060: e4aa 863e 551b f63c f963 e13d 1b7f 953b
00000070: 588f dfbd 4267 393e 2aa3 9a3d 9911 46bc
00000080: 0a2c 013e f4be 9c3d 4d35 febd 5f6c b33d
00000090: b374 943c 8d45 8c3d 6012 b53d 3bf1 f03d
000000a0: ffbf 06bc cf94 273e 5418 fbbd 071d 0ebe
000000b0: 7947 863d 7ed4 3f3e 44cb 73bc 542f 243d
000000c0: 145e 48be 79c9 32be b1c4 1bbe 8277 0c3e
000000d0: 2f85 40be 323a 1a3d cda1 0839 6b5f 78bd
000000e0: 7843 7c3d f9bf aa3c f742 663e 2302 3e3e
000000f0: 3a48 233e 5557 c83d f197 0a3d 814a 213e
00000100: 3719 24bd fc43 debc 51e3 153e 9193 3b3c
00000110: 0e0a af3e 78bc 7ebd ccdd 373e b54e 5b3d
00000120: b2f1 063c 4f44 943d 80de 2abe 6f96 5fbd
00000130: ef81 40bd a0d8 b2bd 36b0 d63d af56 333e
00000140: 68c1 253e 0852 d03d 6165 ab3d a9cc 92bd
00000150: c947 73be 3586 013e 0f3f 873d 40cb 40be
00000160: 2da2 9ebd 52ec 2bbe 14b7 063e f79c 323e
00000170: 7e81 e83d fdee c13d 1494 143e 1503 1ebd
00000180: 6651 12be dba8 6a3e 0abc 773d e309 3a3e
00000190: ee16 163e 7c2b f83c 2248 54bc fa86 223d
000001a0: c979 4ebe 717b 16bd 7de6 1dbe 365b 0f3e
000001b0: c99b 0f3e 6341 cd3d 326f 8cbd ea89 1abd
000001c0: cd99 4fbe 3703 933d b509 b43d 7590 0e3e
000001d0: cdfb 423d 5b15 4bbd 4b3e 4ebd 8972 cfbd
000001e0: 6262 163c 0818 b13d 319d 27bd d282 033e
000001f0: a8dc cabc dc74 9e3e db79 47be bcd8 4c3d
00000200: f3a7 83bd ab56 23bd e896 1f3e e382 cdbd
00000210: 57f6 e5bc ec56 32be a526 113b ae19 27bd
00000220: b2f9 ef3e 0a3c c43d db05 2b3d 0920 d5bd
00000230: d657 b6bc 340b 323d 5658 96be e42e 2b3e
00000240: c72c 673e c071 abbd 4036 6a3e c550 703e
00000250: 9a49 e23c 3d71 3b3e d345 a1bc d7d1 bc3c
00000260: a5a0 8d3e 6d02 86bd 6155 26be d17c 543d
00000270: bfaf 5c3e 95d2 28bb 265c 613e fe70 94bc
00000280: 29e2 e83d 547f 23bd 254e c33b a4c9 0a3e
00000290: 1089 88bc 561c d53d 4362 5bbd 423c e4bd
000002a0: 9162 b1bd a823 0bbe e4be 263e a179 cf3d
000002b0: 2ecd af3c 49fd 0f3e dd46 ad3d 13ca a0bc
000002c0: 68dd 39bd 796d aebd 4f64 053c b08d 05bd
000002d0: 4ab8 16b8 52df 9a3d 2c64 28be 79fb ecbd
000002e0: 41dc 8abd 2bef 383c 76b2 cf3d 3b09 8c3d
000002f0: 40c0 a03d 55d2 9d3d 17ca 0e3e dd45 323e
00000300: ee75 e53d c820 d53d 09e3 983a 2992 78bd
00000310: c9f1 573c 0595 0b3e 3004 ee3c de9f 08be
00000320: 326b 2dbe 6f18 15be 6faf 78bb c7ac 633e
00000330: faf3 28bc 94d1 26bd 3136 073e b4f3 853d
00000340: dca7 29be 53b0 6ebe 0d4c 113c 2a43 ae3d
00000350: 5288 82bc 3783 c13d 8efd 0ebe 7ade fb3c
00000360: 1ff0 c73e 1a1c ee3d 35ba 0e3e 43b4 8e3e
00000370: 1783 f3bc dbcf 94bd 008f 6c3e 89e7 9b3d
00000380: bb57 64be 169f a33d a2ff e3bc a26f 753a
00000390: a907 db3d cde3 bcbd ae2e bd3c fe05 ff3d
000003a0: 6d0f 98bd 13de 56bd f1e8 65bc b73e c23b
000003b0: 7696 9a3e bc46 793c cb57 e43d b4a6 07be
000003c0: 0fe7 ca3d 10f7 f5bd 8cbe 92bd 49d1 e4bc
000003d0: a2ee dbbc 828c dabd 91e6 1f3c 4aaa 9f3d
000003e0: 6c40 2b3e ff02 bbbc cdd5 333d 5b13 8b3e
000003f0: 3ffa ab3d d751 3f3e f870 ddbc e58d a53d
-0.0068500624 -0.006250055 -0.26363498 0.246832 -0.047520764 -0.2466267 -0.13771391 0.08969898
0.007474939 0.04809273 0.068336785 -0.13054612 0.18460947 -0.20376475 -0.17514652 -0.058232803
-0.06112339 -0.17325881 -0.22759296 -0.023458596 0.11314716 -0.053359088 0.049937207 0.23419468
0.26302254 0.03004233 0.110053964 0.0045622713 -0.109160125 0.18105796 0.07550652 -0.012089157
0.12614456 0.07653609 -0.1241251 0.087609045 0.018122053 0.06849203 0.088413954 0.11764761
-0.008224486 0.1636536 -0.122604996 -0.1387826 0.06556601 0.18733403 -0.014880005 0.040084198
-0.19567138 -0.17459668 -0.1521175 0.13717464 -0.18800806 0.037653156 0.00013030246 -0.060637873
0.06158778 0.020843493 0.22486483 0.18555503 0.15945521 0.09782282 0.03383631 0.15751077
-0.04006311 -0.027132027 0.14637496 0.011448757 0.3418736 -0.062191457 0.17955703 0.053541858
0.008236336 0.07239591 -0.1668644 -0.054586824 -0.046998914 -0.08732724 0.10482828 0.17513536
0.1618706 0.10171896 0.08368946 -0.07167942 -0.23757853 0.12648852 0.06603824 -0.18827534
-0.07745776 -0.16789368 0.13155776 0.1744269 0.11352824 0.094694115 0.14509612 -0.038577158
-0.14288864 0.22915976 0.060482062 0.18167834 0.14657184 0.030294172 -0.012956651 0.039679505
-0.20163645 -0.036738817 -0.15419956 0.13999638 0.14024271 0.10022237 -0.06857146 -0.03772918
-0.20273514 0.071783476 0.08790914 0.13922293 0.047603417 -0.049580913 -0.050352376 -0.10129268
0.00917873 0.08647162 -0.040921394 0.12842873 -0.02476342 0.30948532 -0.19480078 0.05001138
-0.06428518 -0.039877575 0.1558491 -0.1003473 -0.028071566 -0.1741597 0.0022148278 -0.040795974
0.4687019 0.09581764 0.04175363 -0.10406501 -0.02225868 0.043467715 -0.2936427 0.16717106
0.22575675 -0.083713055 0.22872257 0.23468311 0.027622987 0.18304916 -0.019686615 0.023049278
0.27661625 -0.065434314 -0.16243507 0.051876847 0.21551417 -0.0025760282 0.22007808 -0.018120285
0.113712616 -0.03991635 0.0059602433 0.13553482 -0.016666919 0.10405795 -0.053560507 -0.11144306
-0.08661378 -0.1358782 0.16283756 0.10130621 0.021460142 0.14061464 0.08460782 -0.019627606
-0.045377165 -0.08516974 0.008141591 -0.032605827 -3.593442e-05 0.07562126 -0.16444463 -0.11571402
-0.06780291 0.011287491 0.101414606 0.06837698 0.07849169 0.07706133 0.13944279 0.17409463
0.11204134 0.10406643 0.0011664341 -0.060686264 0.013180205 0.13631065 0.029054731 -0.13342234
-0.16935423 -0.14560102 -0.0037946363 0.22233878 -0.010312075 -0.040727213 0.13204266 0.06540623
-0.1656794 -0.2330945 0.00886823 0.08508904 -0.015934143 0.09448855 -0.13963911 0.030745734
0.39050385 0.11626454 0.1393822 0.27871904 -0.029725594 -0.07266208 0.23101425 0.07612521
-0.22299092 0.079893276 -0.027831856 0.0009362643 0.106948204 -0.09223137 0.023093548 0.12452315
-0.07424817 -0.05245788 -0.014032588 0.0059278863 0.30192918 0.015214618 0.11149558 -0.13247186
0.09907352 -0.12010014 -0.0716525 -0.027931826 -0.026847187 -0.10671331 0.009759561 0.07796152
0.16723794 -0.022828577 0.04390507 0.27163205 0.0839734 0.18683563 -0.027031407 0.08083705

child_modules.0.fc.0.bias f4 [256]
00000000: 676a a6bc 877c 953d 601d be3b ee54 b93d
00000010: 5f22 283c cd51 cb3b 6ad3 c6bc ca94 423d
00000020: 3f54 963c 17d0 553d 4de7 f0bc 6b3a c7bd
00000030: 5737 0f3c e448 6abc 0a27 07bd b944 c3bc
00000040: b9e2 51bd 4f86 413d 5299 24bd ea70 2abd
00000050: 2d1a d1bd 594b 8d3c d88a 8f3b 84dd 9abd
00000060: a7e3 18ba 1ddb 36bd abbd c3bc da37 0abc
00000070: 1181 223d 839f 3f3d 6030 78bd 6b20 143c
00000080: a0d9 78bd af1c 4e3d 6d76 5c3d 73d7 433b
00000090: ea3d ff3c 2153 2fbd 5f92 6abc fc95 c93c
000000a0: 82a0 50bc 7043 93bd b227 4c3d 2a80 723d
000000b0: dfd4 8c3d 1128 09bd 5a64 fb3c 5dcf acbd
000000c0: 34c6 f8bc bbf9 61bb 40e1 7bbd 4d76 c03b
000000d0: a5ca d63c c719 9c3d 6b60 f8bd 87d3 89bb
000000e0: d92b a3bd 0515 593b efdb b93c e7e8 f03c
000000f0: 40f7 023e 395e 95bc 5646 84bd 6fc4 80bd
00000100: 5614 193d 2e7f 2f3d 2614 24bc 9457 053d
00000110: 40fb 89bc 99e8 28bd b95e 06be b641 4fbd
00000120: 995a 973d 60f4 d4bd 84f5 f3bc 0aa0 09be
00000130: 62de 44bd 4d94 733b ec0a 443d 1d82 643d
00000140: 5294 b6bb cd6f fe3c 466b 93ba 7fc1 193d
00000150: 4175 643d caba b43a a28a bfbc 6567 803b
00000160: 1226 06be 5b2d 4b3d 3be7 4b3d 459c 653b
00000170: db5c bb3d b39e 383d 2fca 82bd f847 e8bc
00000180: f5e9 fabc 456f c63c d638 e1bc 2798 bebd
00000190: fd8a 01bd 6646 ce3c 768e e8ba 4a33 fcbc
000001a0: 2543 ec3c 4556 263d 2e0f 1e3d 567a 683d
000001b0: d56b 90bb 737f 03bd dd19 f23c 4db3 d43c
000001c0: b4d2 233d 816b 073d 2579 f63c ddfd 50bd
000001d0: 6c64 a8bd c394 273c 9d6a c03c 5b0d 043e
000001e0: efb2 cf3d 2ba4 173d c8a8 223d a853 493d
000001f0: 509e 853d 8c0f 9d3c 7ab7 943c 4c43 1dbd
00000200: 81a1 c33c 5ebe 213d 32de 36bd 044c 97bc
00000210: 7797 313d e4fe ad3d 5d0a cf3d aa42 8abb
00000220: 8c52 37bc 6a84 2d3d a1bd efb9 5d03 5d3d
00000230: ab6c 983c e413 08bd 9081 9f3b 307e df3d
00000240: 9da5 8e3c b878 923c 371e 1fbd 7f02 36bc
00000250: 581c 74bd 0264 12bb 8273 6d3c d5cd f03c
00000260: 55d9 42bd f924 5b3d aeac fb3a 1675 94bd
00000270: c333 0cbd dfd0 9ebc 74e6 c83b 057f 2ebc
00000280: 614e 0cbc dba6 ebbd f540 243d d062 e03c
00000290: be53 17bd 7bc3 313a 07f8 b5bd 7304 803b
000002a0: ea96 c5bc a824 adbd 20af 85bc 3dc5 2e3d
000002b0: e4be 093d 690a 6c3c 994e 2a3c 6a33 90bc
000002c0: fa6a 76bd 9070 313d 1c82 a53c f6da ed3b
000002d0: f4c6 e6bc 07cb 463a 8a23 b1bc 4435 943d
000002e0: 19cf 63bd dfd8 8fbd 4033 18bd 88f6 cd3b
000002f0: 4887 25bd 9bb5 f93c f8da 06bc b542 743b
00000300: 086e 1c3d 6eab 933d d3e3 2abd 41e6 9dbc
00000310: 8010 4bbd e1cd 3cbc 503e d93c 5224 a5bc
00000320: a82e 273d 73d2 523d ca92 d4bd 8d13 27bd
00000330: cd38 1bbd 2fb9 3bbe 01dd 5ebd e146 783d
00000340: 8623 81bd be17 7d3d f9c6 583d 61c5 2bbd
00000350: d7d9 fa3c 0eb1 223d be19 3a3c 8be1 0e3d
00000360: 085b 9ebd a96d f3bc 8676 4dbb de0c b5bc
00000370: fd55 01ba 9b89 4abd 0f17 33bc 061e ab3d
00000380: a4be 103e 22f1 edbb 1aa2 0fbd fb7b fabc
00000390: 80d7 55bd 6833 3fbd 0b63 0dbd 42af e53c
000003a0: c7d7 1e3d 4e99 debb 59ad d03c 5eba 26bc
000003b0: ed69 5e3d 4ef6 dd3c 20c6 1a3b 4e5c 753b
000003c0: 6b7a d73d 79f1 e3bd a906 503c 4028 71bd
000003d0: 2c50 e5bc 0059 a13d 39bb fb3c 9fda 20b9
000003e0: 565b 06bd 2ae9 91bd 88da 19bb 6e68 aabc
000003f0: b661 da3d 0edb 38bd 3142 383d 0cea ba3c
-0.020314408 0.07299142 0.0058018416 0.09049402 0.010262101 0.00620482 -0.024270732 0.047505178
0.018350719 0.052200403 -0.029407168 -0.09727939 0.008741221 -0.014299605 -0.032996215 -0.02383648
-0.05124161 0.047247227 -0.04018528 -0.04161159 -0.10210071 0.017247843 0.004380565 -0.07561782
-0.00058322627 -0.044642556 -0.023894152 -0.008436168 0.03967387 0.04678298 -0.06059301 0.009040932
-0.06075442 0.050320324 0.053823877 0.0029883056 0.031157453 -0.042803887 -0.014317124 0.024607651
-0.012733581 -0.07190597 0.049842544 0.059204258 0.068765394 -0.033485476 0.0306875 -0.08437989
-0.030367948 -0.0034481126 -0.061494112 0.0058734776 0.026219675 0.07622104 -0.12127765 -0.004206124
-0.07967348 0.00331241 0.02268788 0.029407931 0.12789631 -0.018233405 -0.06458728 -0.06287467
0.03737291 0.042845897 -0.010014569 0.032554224 -0.016843438 -0.041237447 -0.13122071 -0.050599776
0.07390327 -0.10398173 -0.029780157 -0.13439956 -0.048063643 0.0037167252 0.04786198 0.05578815
-0.0055718804 0.03105917 -0.001124718 0.037538048 0.055775885 0.0013788578 -0.023381535 0.0039185756
-0.1310046 0.0496038 0.049781065 0.003503577 0.0914857 0.045073222 -0.0638622 -0.02835463
-0.030629138 0.02422298 -0.027492922 -0.093063645 -0.03162669 0.025180053 -0.0017742652 -0.030786175
0.02884061 0.040609617 0.038588695 0.056757294 -0.004407386 -0.032103967 0.029553348 0.025964404
0.039995864 0.033061508 0.030087063 -0.051023353 -0.08222279 0.010228339 0.023488337 0.1289572
0.10141551 0.037021797 0.039711744 0.049152046 0.06524336 0.019172452 0.018153895 -0.038394257
0.023880722 0.03948819 -0.044645496 -0.018468864 0.04335734 0.08495882 0.101093985 -0.0042193728
-0.011189114 0.042362608 -0.00045726917 0.053958286 0.018606504 -0.033222094 0.00486774 0.1091274
0.017412955 0.017879829 -0.038847174 -0.011108994 -0.059597343 -0.0022337441 0.014492871 0.029395023
-0.047570545 0.053502057 0.0019201243 -0.07248895 -0.03422905 -0.019386707 0.006130988 -0.010650401
-0.008563609 -0.115064345 0.04010101 0.027390867 -0.036945097 0.0006781143 -0.08885198 0.0039067804
-0.024119813 -0.08454257 -0.016318858 0.04266857 0.033629313 0.014406779 0.010394716 -0.017602641
-0.060160615 0.04332024 0.020203643 0.007258768 -0.02817104 0.0007583354 -0.021623392 0.07236722
-0.055617426 -0.07023787 -0.03715825 0.0062854923 -0.040412217 0.030482104 -0.008230917 0.0037271206
0.03819087 0.07210432 -0.041721176 -0.019274833 -0.049576283 -0.011523695 0.02651897 -0.02015892
0.04081598 0.05147023 -0.1037956 -0.04079013 -0.037895966 -0.1833236 -0.054409984 0.06061447
-0.06305604 0.06179022 0.05292413 -0.041936282 0.030621452 0.039719634 0.0113586765 0.034883063
-0.077322066 -0.029715376 -0.0031351163 -0.022100862 -0.0004933773 -0.049447637 -0.010930791 0.08355336
0.14135224 -0.0072614113 -0.0350667 -0.030576697 -0.05220747 -0.046679884 -0.034518283 0.028037671
0.03878 -0.0067931777 0.025473284 -0.010176269 0.054300237 0.027094986 0.0023616627 0.003743905
0.10521396 -0.11130042 0.0126969 -0.058876276 -0.02799233 0.078783035 0.030728923 -0.00015340232
-0.03280195 -0.07124551 -0.0023476202 -0.02080175 0.10663168 -0.04513078 0.044985 0.02281668

child_modules.0.fc.2.weight f4 [64, 256]
00000000: 4a92 fabc 6167 a93c 8500 653d efae 9bbd
00000010: 5e0e f7bd 9b84 08bd 96df 1fbe aeed 603c
00000020: 2cb1 12bc d365 85be 3642 4b3c de5b 0f3c
00000030: 6fac 513d 86a5 80be ed6e 1f3e 5488 c1bd
00000040: fa0f c8bd ef95 d9bd 6cec ca3d 80ab d43d
00000050: a240 c7bc a6ad ef3d 4517 1d3c 00b7 133e
00000060: 4f72 573e d280 3c3e 9dac 1d3d 85cd 4e3c
00000070: ed57 d0bd ecb8 073e 05be 043e 95d7 6b3d
00000080: 7963 053e b3e9 a03e 3eeb a73b 000c 4abe
00000090: fcd7 4cbc 1a5c 5b3e 47d0 643e 06ff 69be
000000a0: 2075 6dbd 7e01 7ebd 2d0a 67be 83dd 03be
000000b0: 9ee5 32bc cc9e 99bd 20de 00be 841c fa3c
000000c0: a4ab 39bd e682 c6bc af25 3ebe add9 413e
000000d0: 328b 2bbe ee21 a23d f272 543e 3e1d 5e3c
000000e0: 0103 473d 4914 f63d ef7f fb3b 89b5 b63d
000000f0: 40f4 c8bd 11db 38be 6d32 64bd a472 a03d
00000100: 2425 6cbd e8bf ad3d dc11 853b 15ba b6bd
00000110: 4c6f 8b3e 58e8 1bbe 274a cd3c 0a68 113e
00000120: 00e3 37bc 30c7 ad3d 9a93 50be f1ce b63d
00000130: be39 16be 57b4 02be bb13 9d3e 78e1 65be
00000140: 2f9b 1ebe d08d 55be 0a3b 85bc 21c3 62be
00000150: 4cd7 4bbb ffba 2ebe 079b a43c 255a d13d
00000160: 36fd 043b 98f1 fdbd fe04 19be 8aeb 29be
00000170: 7115 293e 68ef 68be e170 8a3c 2925 6c3d
00000180: 2c1d 9f3d c24c 66bc db59 b33d bd47 fabc
00000190: e9bd 7c3c c995 9cbd 2ceb a03d 5835 62bd
000001a0: 1f7f 7e3d cdd5 393d 89e7 21be 65fc c93d
000001b0: 925b 223e f0de 48bd b800 353d f7fc bebd
000001c0: 32f3 5abd 6a4d 68be 99d0 0bbe a026 1cbd
000001d0: 0369 cdbd 53f1 bb3b 1808 c1bc 438c 3ebe
000001e0: 1b19 febc 3cee 95be 8e50 0cbe 396d 933d
000001f0: 3bc5 873e cdbc 94bd 68ec d73d 917b b9bc
00000200: 04ee 8b3e d31f 66be 256a 65be 2b08 873d
00000210: 88cb cdbe 03e5 773e 5e24 c0bc 6049 dbbd
00000220: b40e fabd a018 92bc d5d0 043d 10ee 8c3e
00000230: 0a65 aa3d f997 653e 95bb d33d 0637 36be
00000240: 3785 a43d 54d9 973c b066 6b3e ea98 283e
00000250: 3010 0f3e 8d8d f43d 77c4 4d3e 574d 5a3d
00000260: 8c72 1bbe 4a22 0f3e 5e47 fe3d 8b5d ad3d
00000270: 86be 9fbd b38b 8bbe 33e0 9a3e 9a41 15be
00000280: dcf6 88bd bc7e 52bd 3aeb 1bbe e68e 233c
00000290: 60e5 493e ac7c 163e b5ae 31bd 00d7 ffbd
000002a0: 7adf 30bc ef50 13bb a44d 1fbe e9d6 b53d
000002b0: 1e73 5cbe 0697 0fbe a93a 9abc d734 1e3e
000002c0: 93fd e1bd 04cc 85be 5dca 553e b41c 36be
000002d0: b3bd ae3d 8602 b33d c56b 483d 851c 2ebd
000002e0: 0fa7 3ebe f1c0 9ebd 2e2f 7f3d 56de 9f3c
000002f0: 6839 afbd b772 b33e a811 3a3e ead5 35be
00000300: 128f f5bd f4c7 3a3d 90e1 003e e581 3bbe
00000310: e702 43be 8a78 263e c550 a6be a254 acbd
00000320: 0941 863c 56a6 dbbd 3473 bf3b 1c79 a9bb
00000330: 5b79 92bd dcc9 b13d 9a3a a43d 6f85 c8bd
00000340: 0f49 16bc d2e1 d73d f78d 6cbc 850a 6e3d
00000350: c9eb ef3e 99ad af3d 82b7 d93d cc5e 383e
00000360: 8e1d 4dbe d105 32be cfd1 d0bc 9624 d03e
00000370: b492 e93d 4daa 8c3d 0f82 4c3d 882b 023e
00000380: 4831 0cbd 602a b23d 5b26 d7bd 98d3 bdbc
00000390: dddf b63d 4fd4 053d d7f7 f7bd e5a0 63bd
000003a0: 6582 d03d 2126 8ebd 42bc d6bc 9dd9 b73e
000003b0: d67a 463e 36f1 543d c028 1ebd 3d04 3ebe
000003c0: 8816 67bd 8d4b db3d 8e23 d7bd dc00 803c
000003d0: 200f aebd 2c13 30bd 2dcd 60bd ab62 213a
000003e0: 7776 ffbc b158 8abd 1a05 053d 0ae1 f1bd
000003f0: 3c51 c2bd de22 253c e2b6 b3bd eb94 b53d
-0.030587334 0.020679178 0.0559087 -0.07601725 -0.12063287 -0.033329587 -0.15612635 0.013728542
-0.008953374 -0.26054248 0.012405923 0.00874993 0.051189836 -0.25126284 0.15569659 -0.09449831
-0.09768672 -0.10624301 0.09908375 0.103842735 -0.024322812 0.11703043 0.009588067 0.14425278
0.21039699 0.18408516 0.038494695 0.012622242 -0.101730205 0.13254136 0.12963112 0.057578642
0.13026227 0.31428298 0.0051244786 -0.1973114 -0.012502667 0.21421853 0.22345077 -0.2285119
-0.057973027 -0.06201314 -0.22562476 -0.12877469 -0.010919003 -0.07500991 -0.12584734 0.030531175
-0.045329705 -0.02423234 -0.18569063 0.18930693 -0.16752318 0.07916628 0.20746973 0.013556777
0.04858685 0.12015588 0.007675163 0.08921344 -0.09812212 -0.18052317 -0.055712152 0.07834366
-0.057652608 0.08483869 0.004060967 -0.08922211 0.2723335 -0.15225351 0.025059773 0.14199844
-0.011223555 0.084852576 -0.20368806 0.0892619 -0.14670464 -0.12764107 0.30679116 -0.22449291
-0.15488885 -0.20854878 -0.016263504 -0.22144748 -0.0031103669 -0.17063521 0.020093454 0.10222272
0.0020292527 -0.12399596 -0.1494331 -0.16593757 0.16512085 -0.22747576 0.016899528 0.057652626
0.07769236 -0.014056386 0.08757373 -0.030551786 0.0154261375 -0.07645757 0.078573555 -0.055226654
0.06213295 0.045369912 -0.1581098 0.098625936 0.15855244 -0.049040735 0.04419014 -0.09325593
-0.053454585 -0.22685781 -0.13653792 -0.038122773 -0.10029795 0.005735555 -0.02356343 -0.18608193
-0.03101783 -0.2928332 -0.13702604 0.07198567 0.26517662 -0.072625734 0.10543138 -0.022641929
0.2733003 -0.22473077 -0.22403772 0.06593355 -0.40194345 0.24208455 -0.023454841 -0.107073545
-0.12209836 -0.017834008 0.03242572 0.27525377 0.08320053 0.22421254 0.10338513 -0.17794427
0.08033221 0.018536247 0.22988391 0.16464582 0.13971019 0.11941061 0.20094477 0.053296413
-0.15180415 0.13977924 0.12415956 0.084651075 -0.07800011 -0.2725502 0.30249175 -0.14575806
-0.0668771 -0.051390395 -0.1522645 0.0099828 0.19716406 0.14695996 -0.043379504 -0.1249218
-0.010795468 -0.002247866 -0.15556961 0.088788815 -0.21528289 -0.14022455 -0.0188268 0.15449844
-0.110346936 -0.26132214 0.20877977 -0.17784387 0.08532276 0.08740716 0.048930902 -0.042507667
-0.18618415 -0.077516444 0.062300853 0.019515198 -0.08555871 0.35048458 0.18170798 -0.17757383
-0.11990179 0.045600846 0.12586045 -0.1831127 -0.19044076 0.1625692 -0.32483497 -0.0841458
0.016388433 -0.107250854 0.0058425907 -0.005171908 -0.07152053 0.0868108 0.0801899 -0.097910754
-0.009172692 0.10541119 -0.014438144 0.0581155 0.46859577 0.08578033 0.106307045 0.18004912
-0.20030805 -0.17385031 -0.02549067 0.40652913 0.114049345 0.0686842 0.04992872 0.12711918
-0.034226686 0.08699489 -0.105053626 -0.023172185 0.08929417 0.032673176 -0.121078186 -0.055573363
0.10181121 -0.06940866 -0.026212815 0.35908213 0.19382796 0.05198785 -0.03861308 -0.18556304
-0.05641797 0.107077695 -0.105048284 0.01562541 -0.084989786 -0.042987034 -0.05488317 0.0006156365
-0.031184418 -0.06755198 0.03247557 -0.11810501 -0.094881505 0.010079114 -0.087751165 0.088662945

child_modules.0.fc.2.bias f4 [64]
00000000: 912e c2bd eabc ca3b c872 c23d 1261 073c
00000010: a9a2 eabc 5408 8f3d 8a54 34bd 4906 47bd
00000020: 6c5c 4fbd 61f7 ddbc dc2d 9b3d 501f c2bd
00000030: 8c83 8c3d 9430 383d 20ef 783d 8482 d6bc
00000040: eadc a8bc 9509 b4bd f8b5 e4bc 064c ca3b
00000050: a0b2 963d f1e5 b8bd 63f0 31bd 92bf 24bd
00000060: dcab 87bd c9e6 74bc 8b93 e33d f168 e4bc
00000070: 4a48 4ebd 6b17 a0bb ba88 83bd 34c6 8cbd
00000080: 927a 083d 9922 38bd 8dc1 b73d d865 a73d
00000090: 32c1 5d3d 6591 e9bd cde6 a039 f634 43bd
000000a0: 9933 b3bc 4693 273e 9adf 41bd 7585 2fbe
000000b0: 7f19 093e 2b80 aa3d e18e 683c ad58 2fbd
000000c0: 1797 333e 1305 433d 4133 613d 28ac 403d
000000d0: df65 433c 7033 89bd 40e0 4bbe 634b 84bd
000000e0: 51a8 a43d bb80 c93c 6ff7 303d 920a ffbd
000000f0: 4945 163e 239e d93c d1d5 7d3c cd08 e33d
-0.09481538 0.006187071 0.09494549 0.008262889 -0.028642016 0.0698401 -0.044025935 -0.04858998
-0.05062525 -0.027095499 0.07577106 -0.09478629 0.06861028 0.044968203 0.060774922 -0.026185282
-0.020613153 -0.0879089 -0.0279188 0.0061736135 0.07358289 -0.09028233 -0.04344214 -0.04022176
-0.066245764 -0.014947602 0.11112126 -0.027882071 -0.05036191 -0.004885604 -0.06422563 -0.06873742
0.033320017 -0.04495487 0.08972464 0.08173722 0.054139324 -0.11404685 0.00030689538 -0.04765793
-0.02187519 0.16364774 -0.047332384 -0.17140754 0.13388632 0.08325227 0.014194221 -0.042809177
0.17538105 0.04761226 0.05498052 0.04703918 0.011926143 -0.06699264 -0.19909763 -0.064596914
0.08039916 0.024597516 0.04320472 -0.12453188 0.14674868 0.026564663 0.015492872 0.11085663

child_modules.0.fcc_c0.weight f4 [8, 64]
00000000: dafb cabe 658b c3bd 5553 babe fead b9be
00000010: 8b28 ebbe 61ef af3e cfd7 82bc ce10 b73e
00000020: 5c2f 23bf 560e bd3e 8eb9 9bbe 7cc6 73be
00000030: e370 4c3e 50c8 f13e d99b 0e3e 16ef 15bd
00000040: 75eb 81be 55e6 bfbe 011a 033d f913 4f3e
00000050: 97b4 073e 47c8 28be beba 503d 9719 d7bd
00000060: f33b 38be 4c1e cfbe aeae ef3d b0b7 a7be
00000070: c925 bcbe d994 14bd c004 c3be 470a 98be
00000080: ec90 d4be 9440 49bf 08ab c03e 5532 b23e
00000090: c938 9fbc 5aa5 603d b5f4 7f3e 74c5 56bf
000000a0: 7b5d bdbe 9334 913e 38ff 4ebe 8a78 b13e
000000b0: 07c4 613e ba9f 3cbd 25b9 d6be c6e7 b1be
000000c0: 91ed 0d3e 2b32 463d 38b8 cc3e 4239 f23d
000000d0: 018a 82bd adde a3be 86f0 443e 5661 c6be
000000e0: da60 eabd 9e48 973e cf5c f5bd 7e8f dfbc
000000f0: be70 9c3e f1b9 bb3e a713 563e e6e8 1cbe
00000100: 3043 2f3e 20c8 8a3e 2542 c1bd 14cf 043d
00000110: 83a3 e9be bf43 5abd 33e3 32bb ad9d 943d
00000120: df41 bbbe 5094 e23d 74a8 d1be f915 293d
00000130: 4972 ae3e b340 f6bd e6b0 313e d0be 92be
00000140: b1f1 74bd 60ff 88be a6ae 9cbd 5662 ddbd
00000150: 6a03 8bbd 2433 abbc dc82 ccbe 74c8 813d
00000160: ca2f 08bf 6ed8 8abe 90a3 1d3f ef59 7bba
00000170: c137 113e da39 e8be b8f2 b4be 5f94 cf3d
00000180: f7b5 32be 8758 9fbe 6e3a d03d 3f4f e73d
00000190: a83b 2e3d a665 d8be bce1 ba3b bff3 a5be
000001a0: a36e 22bf 5b64 953e 7e40 afbe cb4c 14be
000001b0: 880a 8a3e 9425 1ebf 0016 abbc e710 153e
000001c0: 49f0 8c3e 33f4 a63c 0e74 50be bbde 693e
000001d0: 6e37 ca3e 2537 103e 7e83 a7be 49a3 30bc
000001e0: b682 9f3e ab84 1fbe b45e 733e 91d4 87be
000001f0: de99 ee3e a723 babc e14f 06be 0bb6 d53e
00000200: 905c e1bd 4300 403e dbdb 2c3f 07fd 8e3e
00000210: 405c 00ba a819 5d3f 8974 a6bc ffd9 eb3d
00000220: a5d1 37be ba2f 6a3d 4d3e f2bd 0192 01bd
00000230: 314c c03e b8c4 a23e 6e12 2ebe e6ab c1be
00000240: ad5c 03bf ce00 6dbe 10ac ccbe 8f37 0c3f
00000250: be27 a6be b7d0 36bd 0ab8 bdbd 7e63 07bd
00000260: b183 8d3e 6e9c ea3d 8006 823e 632c 1cbf
00000270: cebf dcbd 60fc 49be 31e7 76be e776 3abf
00000280: f8d1 f33d 0ee7 c9be 32b4 9c3e d81d 463e
00000290: 8862 843e 0c7f 39be c909 9dbe 6d91 edbd
000002a0: 0fee bcbe 84d5 633e 41b4 76bd 8e9b 1fbe
000002b0: f7d9 b93e 2103 da3e 8de3 393d ac03 cbbe
000002c0: 38ee 233f fed8 313f 88ce 203e c498 073f
000002d0: bd79 b0be f61f bebe 2bdf dabd 959c 4fbe
000002e0: 7950 b53e 5180 133e 1b16 eb3e 5d07 b5be
000002f0: 3d2d f83d e3a4 c6be 58d0 c73d 76eb a03b
00000300: 49a8 f6be 058c 7dbe 6d31 37ba 1fb5 98be
00000310: 4d89 8fbd 888b c3bd a704 78bd b91c e3bd
00000320: bafc 9d3d c3e0 743d 4bea 413e 5d85 22be
00000330: 5732 543e 695e 613e fa77 bfbd 9229 08be
00000340: f5eb 323c 3924 9abd ec17 0fbd 4117 9d3c
00000350: 2342 cc3e 9d9c 13bf b2da 8f3d ce8b 48be
00000360: 281f 483d 48f5 20be 198c 983e 4ce4 74be
00000370: 1c9d 90be 1230 3abd 0e60 11bf 696a c4be
00000380: 100b e63e 7176 d6be 4a1b 303e 8a75 37bc
00000390: e8da 813e 7859 67be f85d cf3e 9b2c f1bd
000003a0: c0bc d53d a1fa b03e 60a2 343e 6a3b 00bf
000003b0: d283 823e f702 a83e e396 6abc 1444 93be
000003c0: 00af 213f ea72 c43e f48f 2d3e ac18 7a3d
000003d0: f38c d03e 9610 09bd 5689 ecbe a33f 1bbf
000003e0: 8dfb 0c3d 92e2 033e d6c0 d13e 2a9d 70bd
000003f0: 4e3f e43e f7f2 693e fc27 603e 1647 833e
-0.39645272 -0.09548072 -0.36391702 -0.36265558 -0.4592937 0.3436232 -0.015972046 0.35755008
-0.6374414 0.36925 -0.30415004 -0.23806185 0.19964938 0.4722314 0.13926639 -0.036604963
-0.25374952 -0.37480417 0.03200722 0.20222463 0.13252483 -0.1648265 0.05095934 -0.10502928
-0.17991619 -0.40452802 0.117032394 -0.3275733 -0.36747578 -0.036274765 -0.3808956 -0.2969534
-0.41516817 -0.78614163 0.37630486 0.34804025 -0.019436257 0.05484519 0.24995692 -0.8389504
-0.36985382 0.28360423 -0.20214546 0.34662277 0.22047435 -0.046050765 -0.4193813 -0.34747142
0.13860156 0.048387688 0.39984298 0.11827327 -0.063739784 -0.32005826 0.19232377 -0.38746136
-0.11444254 0.2954759 -0.119805925 -0.027290102 0.30554765 0.366653 0.20905934 -0.15323219
0.17115474 0.27105808 -0.09436444 0.032424048 -0.45632562 -0.053287264 -0.0027296066 0.07256637
-0.36573693 0.110634446 -0.40948832 0.04128072 0.34071568 -0.12024059 0.17352638 -0.28661203
-0.059800807 -0.26757336 -0.07650499 -0.10809772 -0.067877606 -0.02089841 -0.39943588 0.063370615
-0.5319792 -0.27118248 0.615777 -0.0009588291 0.14181425 -0.45356637 -0.3534143 0.101357214
-0.17452227 -0.31122229 0.101673946 0.11294412 0.04253736 -0.42265052 0.005703179 -0.32412526
-0.6345007 0.29178128 -0.3422889 -0.14482419 0.2696116 -0.6177609 -0.020884514 0.14557229
0.27527073 0.020380115 -0.20356771 0.22838871 0.39495414 0.14083536 -0.32717508 -0.010781118
0.31154412 -0.15577953 0.23766595 -0.26529363 0.46601766 -0.022722078 -0.13116409 0.4174045
-0.11003983 0.187501 0.6752297 0.2792742 -0.0004896559 0.86367273 -0.02031924 0.11516189
-0.17951067 0.05717442 -0.11828289 -0.03163338 0.3755813 0.3179071 -0.16999218 -0.3782646
-0.51313287 -0.23144838 -0.39975023 0.54772276 -0.32452196 -0.04463264 -0.09263618 -0.033053868
0.27639535 0.11455618 0.25395584 -0.6100523 -0.10778771 -0.1972518 -0.2411163 -0.7283768
0.11905283 -0.39434093 0.30606228 0.19347322 0.25856423 -0.18114871 -0.30671528 -0.116000034
-0.36900374 0.22249418 -0.060230497 -0.15586683 0.36299106 0.42580512 0.045383025 -0.3965124
0.6403537 0.6947173 0.15703785 0.52967477 -0.3446788 -0.3713376 -0.10687097 -0.20274575
0.35412958 0.14404418 0.45915303 -0.3535718 0.121180035 -0.38797674 0.09756535 0.0049108816
-0.48175266 -0.24760444 -0.0006988261 -0.29825684 -0.0700861 -0.09548098 -0.06055131 -0.11089463
0.077142194 0.059784662 0.18937032 -0.15871187 0.20722328 0.22008671 -0.093490556 -0.13297108
0.010920514 -0.0752644 -0.034934923 0.019176127 0.39894208 -0.5766085 0.07024135 -0.19584581
0.048857838 -0.15718567 0.29794386 -0.23915213 -0.28244865 -0.045456 -0.5678719 -0.38362435
0.44930315 -0.4188724 0.1719791 -0.011197457 0.25362325 -0.22592723 0.4050138 -0.11776086
0.10436392 0.34566215 0.17640066 -0.5009066 0.25491196 0.32814762 -0.014318201 -0.28762877
0.63157654 0.38368922 0.16949445 0.061058685 0.40732536 -0.033463083 -0.4619853 -0.60643977
0.034419585 0.12879398 0.40967435 -0.058743633 0.44579548 0.2284659 0.21890253 0.25640172

child_modules.0.fcc_c0.bias f4 [8]
00000000: 37f8 853e 8c4c 823e 4142 9f3e cd47 ad3e
00000010: fde0 923e 8157 5e3e d54f 8a3e d77b d23e
0.26165935 0.25449026 0.31105235 0.33843842 0.28687277 0.21713068 0.27014032 0.41110107

child_modules.0.fcc_c1.weight f4 [8, 64]
00000000: 1c30 dd3d 4bb4 92bd 5122 2c3f c047 b73e
00000010: e323 6e3e a3fe aabd 73e8 1fbe 7016 f5be
00000020: c947 a23e 506f 52bf 544b 373f f548 c1be
00000030: c4e3 253e 499b 15bd 91c7 d43e 72a2 763d
00000040: 7d6e d13d 09c2 1a3e dc23 a53b 7adf 86be
00000050: 1e92 9b3e 8d20 15be 04ff 00bf 2f26 bebe
00000060: 4e00 86be fd1f bc3e caf7 8d3e 8822 8f3d
00000070: f5b0 b93e c5e4 e4be 5fff b53e d921 ecbd
00000080: 7e18 e03e ea43 933e 549b 7ebe 125e e83c
00000090: 7604 4a3c cf0b 9ebe 3b6b 223d bf88 c13e
000000a0: bc9a 803c dd52 ab3e 86b1 d93b 5e50 32bf
000000b0: f251 723e 54b5 8dbd 77f3 773e a324 e13e
000000c0: 863b a93e ab45 babc 2402 473c a5db 793e
000000d0: 386a 073e e5cf c4bc a3a5 16bf 7005 b0bb
000000e0: 5c18 0a3f db58 87be 51e2 463e 1fb0 10bf
000000f0: 55e0 8d3e ed7c 543e ab78 533e ae2f 163f
00000100: 684b fcbe ab00 e4be 0e18 963e e0c4 663b
00000110: ade6 853e 8cd9 9b3e 6498 6dbe 7b8d 2e3d
00000120: 1429 32be e897 c1be 6aac fa3e e8d1 0ebf
00000130: baba 06bc f681 e13e 2b62 053e 23c1 493d
00000140: 311f 07be a853 043e 94fe 3c3e e0a3 b43d
00000150: 1166 d03e fc66 a9be 8778 b03c 65ed f1be
00000160: 5eb7 023e f666 d43d 450b f9bd e4c5 6bbe
00000170: 7806 a7be 94b5 543e 3837 9b3e 0d5d 1dbf
00000180: 9302 343e a388 40be 8b39 f53d eca5 823e
00000190: 58d1 e0bd b3e6 efbc 1f24 9f3e 0237 b5bd
000001a0: e261 643e f3f9 723e 8da2 1bbd 43b1 53be
000001b0: 69d3 3f3e 566d eb3e 7b28 48be 4d8e f4bd
000001c0: 627b 183e fba4 293e ab78 143f 2f73 173e
000001d0: d03f 11bf 7c6e 10bf b486 c3bd 36e5 8dbe
000001e0: a5cb 3c3e 8284 fd3d 9d4f 91be 2c66 45be
000001f0: af44 83bc e675 ee3e bbb2 003f 3c34 babc
00000200: af55 e6bd 921b 07be ea32 8cbe 045d 2ebe
00000210: 17da 46be 009b 94be 33f2 a8be d13b 83be
00000220: c83a 62be 8642 88be eb1a f83e bd3c cfbe
00000230: c008 77be db5a d03d 1de1 363f 8e77 cb3e
00000240: e56e 4a3e 144c dd3d 9554 073f f167 03bf
00000250: 3baa 353f 437e c0be ca1f b6be 0501 9bbe
00000260: ae98 dabe 9b9c 1cbe 83e2 753e 8c4f db3e
00000270: e04b 2b3e a3ac e3bd ecb5 063e 617b 2e3d
00000280: f083 c4bd 36f6 5bbe e68a d63d fa7c 863d
00000290: 042c f9bd aef0 09be 8575 d13e 13c0 90be
000002a0: a800 923c 3fc2 b23e 9639 babe 3cdd 91be
000002b0: 3fb4 6b3e 2eeb a3be 7fa7 89be 30a2 be3e
000002c0: 26a5 78bd a6a5 c3be ccba 5c3d 6406 2fbe
000002d0: 6be7 e93e 6640 d43d 0d81 8bbe 765e aebe
000002e0: 170b 333e 9685 33be 10f7 a6be 8d0f 78bd
000002f0: 2210 de3e 4332 3f3f 1c72 a33e fdea 013f
00000300: b409 0d3e 3a37 213d 6260 0b3f 98d8 683e
00000310: a18f 00be 0cd3 cb3e 4a08 94be efd3 513e
00000320: 36ca efbe abbc 97be cb1b 793d efd3 dcbe
00000330: 91f6 783e 4813 8b3e 55fd 1a3f 3d73 b4bd
00000340: 68b6 22be 3f44 d3bc 198b 913e c4d6 103e
00000350: 772f d63d 383b cd3d b39d 1cbf 6d08 92be
00000360: f10a ddbe c953 8c3d ba43 893e 0ad2 8a3d
00000370: 0f9d 5f3e c3cf c4be 469d 663e 73e7 98bd
00000380: eb94 d5be 5050 1fbe e318 5c3e 1a29 cb3e
00000390: 815e aebe c70e 3ebe 623d 70be d15b c7be
000003a0: 91d6 e7be b0e7 893e 0dd7 1abf eedb 0dbd
000003b0: 3976 a03e 4364 e7be f6b7 00be 8d57 ad3e
000003c0: 2d69 55bd 3e25 f2bd 9848 9c3e b094 eb3e
000003d0: 1e1f c8be ec36 cebe 58bf aabd bac3 053e
000003e0: bade 0a3f 678c d5bd 28e9 a9be 4066 11bf
000003f0: 0465 0e3e 429a 8b3e 2adb 743e d634 633e
0.10800192 -0.071632944 0.6723986 0.35796928 0.23255877 -0.08349349 -0.15616016 -0.4786868
0.31695393 -0.822011 0.71599317 -0.37750974 0.16200167 -0.036525045 0.41558507 0.060213514
0.10226152 0.15113081 0.005039675 -0.26342374 0.30384916 -0.14563198 -0.5038912 -0.37138507
-0.26172107 0.36743155 0.2772811 0.06989008 0.3626782 -0.44705787 0.35546395 -0.115298934
0.43768686 0.28762752 -0.2486394 0.028365169 0.012330165 -0.30868384 0.039653044 0.3779964
0.015698783 0.33461657 0.006643477 -0.6965388 0.23664072 -0.06919351 0.24213968 0.43973264
0.33053225 -0.022738298 0.012146506 0.24400194 0.13224113 -0.024024913 -0.5884649 -0.005371742
0.5394342 -0.2643498 0.1942227 -0.5651874 0.27710214 0.2075078 0.206515 0.58666503
-0.4927628 -0.4453176 0.29315227 0.0035212561 0.26152554 0.30439413 -0.23202664 0.042615395
-0.17398483 -0.37811208 0.48959666 -0.5578904 -0.00822323 0.44044465 0.1302573 0.049256455
-0.13195492 0.12922537 0.18456489 0.08820319 0.4070287 -0.33086383 0.021541847 -0.4725143
0.12765262 0.10371201 -0.121603526 -0.23024708 -0.32622123 0.20772392 0.30315566 -0.6147011
0.17579107 -0.18802123 0.11973866 0.25517213 -0.10977429 -0.02928481 0.31082246 -0.088483825
0.22302964 0.2372816 -0.037996817 -0.20673089 0.1873299 0.45981854 -0.19546692 -0.11941204
0.14890817 0.16566841 0.57996625 0.14790033 -0.56737995 -0.56418586 -0.09547177 -0.27713937
0.18437059 0.123787895 -0.28381053 -0.19277257 -0.016023962 0.46574324 0.5027272 -0.022729985
-0.112468116 -0.13194111 -0.27382594 -0.1702767 -0.19419132 -0.29024506 -0.32997283 -0.25631574
-0.22092736 -0.26613253 0.48458037 -0.40476027 -0.24124432 0.10173579 0.71437246 0.3973965
0.19768865 0.108055264 0.52863437 -0.51330477 0.70962876 -0.3759633 -0.35571128 -0.30274215
-0.4269461 -0.15294115 0.24012189 0.42834127 0.16728163 -0.11116912 0.13155335 0.042598132
-0.095954776 -0.21480641 0.104757115 0.06566806 -0.121665984 -0.13470718 0.40909973 -0.2827154
0.017822579 0.34913823 -0.3637206 -0.284891 0.23017977 -0.32015365 -0.26885602 0.37233114
-0.060704373 -0.38212317 0.05388908 -0.17092282 0.4568437 0.103638455 -0.27246895 -0.34056443
0.17484699 -0.17531428 -0.3261037 -0.060561705 0.43371683 0.7468607 0.31922996 0.5074919
0.13773233 0.03935931 0.54443944 0.22738874 -0.1255479 0.39809453 -0.28912574 0.20491003
-0.46833962 -0.2963613 0.06081752 -0.43130443 0.24312808 0.27163148 0.60542804 -0.088110425
-0.15889895 -0.025789378 0.28426436 0.14144427 0.10458272 0.10021061 -0.6117813 -0.28522053
-0.4317241 0.06851918 0.26809484 0.06778343 0.21837257 -0.3843976 0.22520933 -0.074660204
-0.41715178 -0.1555798 0.21493869 0.39679796 -0.34056476 -0.18560325 -0.23460916 -0.38937238
-0.4528089 0.26934576 -0.6048439 -0.03463357 0.31340197 -0.4519368 -0.12570176 0.33855858
-0.052102257 -0.1182351 0.30524135 0.46011877 -0.3908624 -0.40276277 -0.08337277 0.13062945
0.54246104 -0.1042717 -0.33185697 -0.56796646 0.13905722 0.27266127 0.2391173 0.22188124

child_modules.0.fcc_c1.bias f4 [8]
00000000: 5467 8c3e 61ac 833e e20d 873e fe93 773e
00000010: 28ee 5a3e 49ca 553e 4984 733e 6cb9 7a3e
0.27422583 0.25717452 0.2637778 0.24177548 0.21379912 0.20877947 0.23780932 0.24484795

child_modules.1.0.weight f4 [256, 69]
00000000: 01be d63c 8d5f d4bc c2df 35be 9a39 863e
00000010: f750 e33c 3f75 523d 4828 36bd 0d22 05bd
00000020: ef25 0e3d 0c8e c63d f517 663a d87f 653d
00000030: 2e69 4dbd aef0 52bb 07b4 e63b 374a 2fbd
00000040: 9a84 263b 6a90 073c 9c6c 553d 0dbe 06bb
00000050: 362a 57bb 6d27 093c a0cb 143c 0286 ac3c
00000060: 56d2 31ba 6ec1 5e3b 16a3 893c 38df 823e
00000070: 18d5 1b3f 62f2 1dbf 1846 9d3f 5460 1cbf
00000080: 0b08 1b3f 06ee 903d 7e67 d7bd 5791 cd3c
00000090: bd8d c93c 5e4e 04bd 9ff5 4c3d 8eea a8bd
000000a0: a558 103c 4302 d93c 8d8b 273b b446 ef3d
000000b0: 5115 dcbc ecd0 8fbd e263 a43e 505f b83d
000000c0: fece 7e3e 7449 533e 6dfe 9d3e f58b 6a3e
000000d0: 949b 7b3e 8b1c 3e3e 1bc5 c23c 006a 063e
000000e0: 611f ad3d 2ac1 11bd 2cc2 c9ba d1e7 a1bc
000000f0: 02d9 d3bb 9fe7 783d 6385 1b3d ddcf 5dbc
00000100: 54e0 bdbc 6008 1b3d b831 52bc 3919 833b
00000110: ee47 313e 8a1d b7bc 8a4e 4fbd 4d9d 193e
00000120: 39d8 883d ecbe d23b 465c 4c3c 2d44 883c
00000130: a75f 37bd 1439 ad3d 28ae 42bc 61c5 fdbc
00000140: 29bb ad3d 8d62 1f3e 240a 30bd f66f c23b
00000150: 6f5f 82bd 3f7c 90bc 7328 d23c f0c4 ffbb
00000160: dde0 843b 1a16 d4ba f92f 6dbc f5d0 77bb
00000170: 95cd 07bc b77d e7ba de01 aabc 7b5a 9e3c
00000180: ae9e a13d 678b 10bc b120 03bd 2339 793b
00000190: 7370 9f3d c455 153c 1f28 a23c b4f8 1c3d
000001a0: 0ea6 aabd d1e6 a63c 1291 dd3c 89f6 46bd
000001b0: 78b7 d23c 07ca 83bd ebe4 4f3c 0103 a93d
000001c0: 59d6 eabc 9fc8 d43c 62a9 f3bb 697d 89bd
000001d0: f428 a1bd f2c6 28bf 2c5b a9be 3f56 66be
000001e0: 65b7 9cbe 2c3a 153f f3fd 3a3e 978e e33c
000001f0: e486 203d d647 493d e197 d43c 9bcb 04bd
00000200: 69cf 223d 76ee f0bc 2ce7 3dbc 5698 da3c
00000210: c849 e23d 6cdd 943d 904e 0f3e 733a b73d
00000220: d563 423e cb2a e3bb 03a4 9b3d 9dd2 2e3d
00000230: 63c1 22be 3065 acbe 9936 c6bd f6e4 bf3b
00000240: c4a7 d9bc 186e bebd 6479 963b 3432 263e
00000250: dca1 e0bd 374e 58bc 7689 01be 72ca ccbc
00000260: fb81 0c3c f8ee 5e3d 8f73 283d b9a5 e0bc
00000270: 6c8f ef3b 7c5a 38bc bebc f6ba 3b1a cfbc
00000280: a9c5 b83b 725e 923b 2c6e ad3b 6499 3f36
00000290: 56e0 ce3b 8359 62bc f961 3a3d 068a 023e
000002a0: 8aab ad3d a9b0 a03d aa8e 0a3d 094b 30bd
000002b0: 9955 fbbd c5a4 c93c ddd6 8b3d 5b0d c33d
000002c0: 3c70 673d 1f1b 903d 7e04 b5bc da02 8c3c
000002d0: b8fc 743d 0429 893d 7a69 133e eda9 d5bb
000002e0: ca6e 29bd 56c3 1f3e 0f2d 57be a7ef 1d3e
000002f0: afe9 ab3e 663a 52be 3c2c 823e e0d4 cc3c
00000300: a098 8ebc cb49 c83d 80ff 9cbd 3b09 893d
00000310: e12f b73d 4302 4c3d d606 19bb 9e9f 79bd
00000320: 9087 023d adf1 d43c bd7a 013e 0a44 2a3d
00000330: 5f8c 203e 58a9 913c 957d cb3e 411e a83c
00000340: ca27 ae3b 3ee4 ffbd 1936 54bd 7df7 233d
00000350: 4467 153c 4e77 9c3d d4f4 28be aadf cf3d
00000360: 8e3d f7bc 9b80 423d 3a1a dcbd 55c7 423c
00000370: c14e 6b3d 68c6 23bd a20d 06bd 8544 5dbb
00000380: 7ed6 9e3c 98b1 3abd f2fd 54bc 940e ccbb
00000390: 68db f4bb 9891 74b7 561f 4dbc 7231 2f3b
000003a0: aab0 6fbc 3e83 243c 1b3f 573d 21db 8b3e
000003b0: de8d c63c 3e0c 1abe 1560 843d bf20 22bc
000003c0: 9361 d5bb 4501 9e3d 3a42 683c 0290 bb3c
000003d0: d346 8e3c 6d04 21bd cd06 3e3c 1b2c 6f3d
000003e0: da30 b5bd 4724 9ebd c610 d5bb e8cd 9cbb
000003f0: bb84 8b3c 69f3 a43c 1ba7 8abd 48ba 3fbf
0.026213648 -0.025924468 -0.17761138 0.26215822 0.027748568 0.051381346 -0.04447201 -0.032503176
0.034704145 0.09695062 0.00087773736 0.056030124 -0.050149135 -0.0032186913 0.007040504 -0.042795386
0.0025408627 0.008274177 0.05210553 -0.0020560056 -0.0032831556 0.008371216 0.009081751 0.021059994
-0.00067833567 0.0033989805 0.016801398 0.25560927 0.6087203 -0.6169797 1.2287016 -0.61084485
0.6055915 0.07076649 -0.105177864 0.025093718 0.024603719 -0.0323013 0.05003893 -0.08247863
0.008810197 0.026490336 0.0025565356 0.116834074 -0.026865633 -0.070222706 0.32107455 0.090025544
0.24883649 0.20633489 0.30858174 0.22904952 0.24571067 0.18565576 0.023775628 0.13126373
0.08453251 -0.035584606 -0.0015392951 -0.019763859 -0.0064650783 0.060767766 0.037969004 -0.013538328
-0.023178257 0.037849784 -0.012829237 0.0040008095 0.17312595 -0.022352953 -0.05061201 0.15001412
0.06681866 0.006431451 0.012473172 0.016634071 -0.044768956 0.084581524 -0.011882342 -0.030977907
0.084829636 0.15564938 -0.04297842 0.005933757 -0.06365859 -0.01763737 0.025654053 -0.007805459
0.004055126 -0.0016180903 -0.01447677 -0.0037813757 -0.008288761 -0.0017661367 -0.020752843 0.019330254
0.07891594 -0.008822299 -0.0320136 0.003802844 0.0778512 0.009114686 0.019794522 0.03832312
-0.08332454 0.020373734 0.027046714 -0.048574958 0.02572225 -0.06435018 0.012688856 0.08252526
-0.028666662 0.02597457 -0.0074359635 -0.06713373 -0.07869139 -0.65928566 -0.3307737 -0.22493838
-0.3060867 0.5829189 0.18260936 0.027777953 0.03919114 0.049140774 0.025951328 -0.032420736
0.039748583 -0.029410582 -0.01159076 0.026683968 0.11049229 0.07268795 0.13994813 0.08946695
0.18983395 -0.0069325916 0.07599642 0.042681325 -0.15894084 -0.3367095 -0.096783824 0.0058561517
-0.026569255 -0.092983425 0.0045921076 0.16230088 -0.10968372 -0.013202242 -0.12650093 -0.024998877
0.008575912 0.054427117 0.04112583 -0.027422773 0.0073107984 -0.011252042 -0.001882456 -0.025281062
0.0056387973 0.004466825 0.0052926745 2.8550503e-06 0.006313364 -0.013815287 0.04550359 0.12747964
0.08479984 0.07846195 0.03382746 -0.04304031 -0.12272186 0.024614701 0.06828091 0.09524032
0.05650352 0.07036423 -0.022096869 0.017091203 0.059811324 0.06697276 0.14395705 -0.006520501
-0.041365422 0.15601858 -0.21013282 0.15423451 0.33576724 -0.2053009 0.25424373 0.02500385
-0.017406762 0.097797 -0.0766592 0.06691214 0.08944679 0.049806844 -0.0023350022 -0.06094324
0.031867564 0.025994146 0.12644477 0.041568793 0.15678547 0.017780945 0.3974425 0.020522239
0.005314802 -0.124947056 -0.051809404 0.040030945 0.009118859 0.07639943 -0.16499645 0.101500824
-0.030180719 0.04748593 -0.1074719 0.011888345 0.057448152 -0.039984137 -0.032727845 -0.0033762765
0.019389387 -0.045579523 -0.012999998 -0.006227324 -0.0074724443 -1.4577432e-05 -0.012519678 0.0026732353
-0.014629522 0.010041056 0.052550416 0.2731562 0.02423757 -0.15043733 0.06463639 -0.009895503
-0.006511876 0.07715086 0.014175946 0.022895817 0.017367756 -0.03931086 0.011598301 0.05839167
-0.08847208 -0.07721763 -0.0065022437 -0.004785288 0.017031064 0.020135598 -0.06770154 -0.7489362

child_modules.1.0.bias f4 [256]
00000000: 7df9 673e 6c39 9c3e ba81 ffbc 82a7 8f3e
00000010: 129d b5bd 77cc 763d 4f36 b13d 80c3 873d
00000020: f54f 3b3d ef92 0fbe b040 05be 03d9 c3be
00000030: 4b9b ec3d 20ce 2cbe 7c18 573c a35d 30bf
00000040: 2dad 663a d72d b9be 0023 3e3e 1e2a fdbe
00000050: 2571 f9bd 4a48 debd e68a 9e3e b806 bb3d
00000060: 36a2 a5be c806 1dbf 5424 8a3d 3bc9 3d3d
00000070: b472 dabd b391 03bf c635 fabe fc5f b7bd
00000080: 90dc fdbd 558f de3c a35e 4dbe 57ce fb3d
00000090: a4f7 b23e eed4 dd3d 24ad 04be 9a44 8e3e
000000a0: 9c6c 3bbe 9159 17bd db99 d4be 045e a73e
000000b0: de9c 5ebe 158b cfbe 058d 9d3e 209e febd
000000c0: 9d78 113e beaa 0b3e bc13 693e 9969 dfbd
000000d0: 285b b43c 5ade f7be 266e e0bd 6389 04be
000000e0: 5498 08bf e971 e23d fc11 1a3e 9730 6e3d
000000f0: 8767 20be b8a6 b3bd a26a 21be e6a4 a83e
00000100: 4322 833e 9568 61be 401e fb3e 0b5e e4be
00000110: 3e25 783e 4f90 ebbe 3fab f7be 28b6 063f
00000120: f2a2 ce3e d31a 083f 5bb6 21bf d0a5 3d3e
00000130: 84f2 15be 37a8 82bd 888a 29bd 106f 2a3f
00000140: 82c4 81bd 479f 773e 19b3 ca3e 241c c53e
00000150: dc8a 233d 40d9 e6be a0e0 8abd 53c5 b4be
00000160: 1ba9 13bd 7ac1 37be 0e01 12bd 540c b8be
00000170: 11ad 01bd 00a3 f9bd 5fd5 853d 5b53 1f3f
00000180: 5345 82be 66a0 e33e fa8c 4c3e db37 aebd
00000190: 8949 e5be 0d1d 43bf abc4 e73d 585e c4be
000001a0: a670 2fbc 0ceb 39be 911c ff3c eaeb 03bc
000001b0: 2d3a 453e bdd1 5e3e b4e1 8abb bb6e 823e
000001c0: 2ab1 e9be d958 cd3e e33b aabe 1f87 a93d
000001d0: 4d04 b63e 38d9 c13d 0333 2abd f560 97bd
000001e0: ed36 dbbe dcb1 5cbe 58d5 113f 9818 18be
000001f0: 8ee4 1f3e e218 053e 2e3f 93bd cf15 85bd
00000200: dfbc febe 6edf f9be 8e4b 81bd 3c03 4f3e
00000210: 4211 f23d dc69 d23e b9e3 2a3f 25a2 41be
00000220: 6a8f eb3d 03d7 32be 210b 703e 7ac6 5f3c
00000230: f4ab 873e fa82 29be 2e9c d5be 7acc 39be
00000240: 1870 ebbc 3c2d 843e 2103 743e a3dd 0bbe
00000250: d263 23bf f7d8 84be 97c9 a0be 3dfb 153d
00000260: 82f7 06be 394e c1bd 4a02 7cbe 30a9 04be
00000270: cc3c 10be 161b 413e c20a 16bd 9867 16be
00000280: 55b2 edbd be65 4abd 9230 c1bd d7e7 ef3d
00000290: 2cf6 993d 09a6 66be a9ca ac3d 14cf 3d3d
000002a0: 905d b0be eccb bf3e bff0 8c3e 1a41 923e
000002b0: 912d 18bd 39dd 283e eeb3 083e 4cfb 01be
000002c0: 2b94 bcbe 7873 b33e 3e82 9ebe b19a 5fbe
000002d0: fc02 04bf 9645 823e e105 7f3d bf6f 083e
000002e0: 8983 e7bd b803 b9be 2d99 c53e 1525 b2be
000002f0: a635 a5be 6b47 3b3e c2cd df3c 754a 8d3d
00000300: 6033 7d3d 7f3d 9d3d 2050 d0b8 5f90 623d
00000310: 062b 933e 5a0e e93b 3319 d13d b0bd 76be
00000320: 43b2 34be 7428 ae3e 92fb 6e3d 1c1a cdbe
00000330: 9059 9cbe af55 313d 5e7e 693d ba85 7e3e
00000340: a058 053d c67e 8c3d 64f8 b8bd d635 c43d
00000350: 0d00 963d d463 e83d 91ef 513d 6c8c 1ebe
00000360: 4992 2d3e b975 093e 2677 63be be3f bebd
00000370: 49dd 3bbe 236a 11be 3e0a 13be 8870 9cbd
00000380: c221 963e 4ebc b5be ce2e c7be ce00 073e
00000390: 1bee 4f3c aa47 35bd 3abf bdbc 912a 35be
000003a0: 2411 94bc fca2 17be bec9 0b3d a786 74be
000003b0: 2863 13be 9e35 813e 0c61 50be 0ff3 e2bd
000003c0: bf5c 9cbb 9da6 8ebd d6df 7abe c5d8 093e
000003d0: 7924 493e 1788 a73d da08 06be bc89 d3be
000003e0: f689 a43d b58b f83d aa8f 44be 4f94 ecbd
000003f0: f0a3 8c3e 6f49 e2bc dd15 353e 00ad cfbe
0.22653766 0.3051256 -0.031189788 0.28057486 -0.088678494 0.060253587 0.08652937 0.066290855
0.04573055 -0.14020894 -0.13012958 -0.38251504 0.11553057 -0.16875505 0.013128396 -0.6889288
0.0008799609 -0.36167786 0.18568039 -0.49446195 -0.12179784 -0.10853632 0.30965346 0.09132141
-0.3235032 -0.6133847 0.0674521 0.046334486 -0.10666409 -0.51394194 -0.4886915 -0.089538544
-0.123955846 0.027167955 -0.20055632 0.122952156 0.3495456 0.10831629 -0.12956673 0.27786714
-0.1830315 -0.03695065 -0.41523632 0.32688916 -0.21739528 -0.405358 0.30771652 -0.12432504
0.14206167 0.13639352 0.22761434 -0.10908813 0.022016123 -0.48411828 -0.10958509 -0.12943034
-0.53357434 0.11056883 0.15045923 0.058151808 -0.15664493 -0.087720335 -0.15763333 0.32938308
0.25612077 -0.22012551 0.49046516 -0.44603 0.24232957 -0.46008536 -0.48372838 0.526217
0.40358692 0.5316593 -0.6316888 0.18520284 -0.14643294 -0.06379741 -0.04139188 0.6657572
-0.06336309 0.24181853 0.39589766 0.38498032 0.03992735 -0.45087624 -0.06781125 -0.35306796
-0.036049943 -0.17944899 -0.035645537 -0.35946906 -0.03165919 -0.12189293 0.06534838 0.62236565
-0.25443515 0.44458312 0.19975653 -0.08506747 -0.44782665 -0.762162 0.11316808 -0.3835323
-0.01070801 -0.1815607 0.031141551 -0.008051852 0.19260474 0.21759696 -0.0042383317 0.25475106
-0.45642978 0.40106848 -0.33248815 0.082777254 0.35550156 0.09465259 -0.041552555 -0.0739154
-0.42815343 -0.21552223 0.5696616 -0.14853132 0.1561453 0.12997773 -0.07189785 -0.064983
-0.49753472 -0.48803276 -0.06313239 0.20216078 0.11819698 0.4109639 0.6675373 -0.1890951
0.115019634 -0.17464833 0.23441745 0.01365816 0.26498377 -0.1655387 -0.41720718 -0.18144408
-0.028739974 0.2581576 0.23829319 -0.13658766 -0.6382419 -0.2594678 -0.314038 0.036616553
-0.13180354 -0.09438748 -0.24610248 -0.12955165 -0.14085692 0.18857989 -0.036631353 -0.14687955
-0.1160628 -0.049413435 -0.09433092 0.11714142 0.07517657 -0.22524275 0.08437092 0.046340063
-0.34446383 0.37460268 0.27527425 0.28565294 -0.03715283 0.1649064 0.13349888 -0.12693518
-0.36831793 0.35049033 -0.30958742 -0.21836354 -0.51567054 0.25443715 0.062261466 0.13323878
-0.11304385 -0.3613565 0.38593426 -0.34793916 -0.32267493 0.18288963 0.027319793 0.06898967
0.061816573 0.07677745 -9.933137e-05 0.055313464 0.28743762 0.0071123065 0.102098845 -0.24095798
-0.17646126 0.34015238 0.058345385 -0.40058982 -0.3053708 0.043294605 0.05700528 0.248557
0.032555223 0.068601176 -0.09031752 0.09580581 0.073242284 0.11347166 0.05125386 -0.15483254
0.16950335 0.13423814 -0.2221342 -0.092895016 -0.18346132 -0.14200644 -0.14359376 -0.07638651
0.2932263 -0.35495228 -0.38902897 0.131839 0.012691046 -0.044257797 -0.023162473 -0.17692019
-0.01807458 -0.14808267 0.034127943 -0.23879491 -0.14393294 0.2523622 -0.2034952 -0.11081516
-0.0047717984 -0.06965373 -0.24499449 0.13461597 0.1964282 0.08180254 -0.13089314 -0.4131602
0.080341265 0.12136022 -0.19195428 -0.11551725 0.27468824 -0.027622906 0.17684121 -0.40561676
